assets/models/catch_two_stage.pth (torch, 495459 bytes, 28 tensors)

sigma_t f4 [6]
-3.1248999 -3.1830764 -2.2970068 -2.2052264 -2.0565917 -1.0659074
00000000: 5cfe 47c0 86b7 4bc0 2902 13c0 6e22 0dc0
00000010: 339f 03c0 a76f 88bf

sigma_c f4 [12]
-0.8281203 -0.25763664 -0.3049803 -0.17202234 0.08691379 -0.18945293 -1.0900627 -0.40099818
-0.3411117 -0.14203404 -0.1052123 -0.20292164
00000000: b1ff 53bf f3e8 83be 6126 9cbe a026 30be
00000010: dbff b13d f3ff 41be 2d87 8bbf a24f cdbe
00000020: 31a6 aebe 5f71 11be 8c79 d7bd b1ca 4fbe

actor_mlp_t.mlp.0.weight f4 [256, 18]
-0.066585414 -0.049186982 0.045628555 0.13195193 -0.03915206 -0.03796149 -0.119617656 0.07599269
0.10892999 -0.12371649 0.028445048 -0.04912624 -0.16040955 -0.14604427 0.31672683 0.01403654
0.14674479 -0.14273797 0.07775867 0.08931903 -0.061485514 -0.032535773 -0.067874484 0.24260798
0.06852608 -0.037355743 0.18563846 -0.18242255 0.0020718547 0.079722844 0.037059512 0.2114321
0.082614556 0.092334256 -0.25300157 0.080769256 -0.014210647 -0.01959879 -0.024532937 0.052534092
-0.12900105 0.152137 0.031089842 0.095438465 0.06475155 0.22520718 0.085300475 0.091167584
-0.26783317 -0.025878763 0.034895126 -0.085129395 -0.09004741 -0.025516061 0.09699773 0.019101555
-0.15923536 0.031893615 0.096131235 0.12798543 -0.12158629 -0.050649714 -0.073603906 -0.14366564
0.03575787 -0.063568994 0.09029002 0.11993099 0.016784243 0.24588788 0.24590917 0.05905906
0.004022133 0.106290676 0.24946661 -0.30778682 -0.28549445 0.029695058 -0.034738746 -0.1483538
-0.10964677 0.015494032 -0.14662932 0.05069168 -0.024541223 -0.014274961 -0.0325156 -0.11405571
0.016688084 0.08160476 -0.0715172 -0.1154579 0.123998426 0.010719584 -0.012958685 -0.16594574
-0.08577372 0.023235127 0.041760437 0.15352716 -0.012335015 -0.2088593 -0.11316105 0.06928246
0.13002181 0.15031126 0.0776563 -0.023694966 0.1711086 -0.13841292 -0.1134855 0.017206335
-0.05309067 -0.12038376 0.041753702 0.11355921 0.06590226 -0.18724781 0.024117103 0.14611176
0.056930177 0.020515317 0.052843843 0.07866626 0.15831628 -0.037972108 0.06178785 0.09534556
-0.14231972 0.15104462 -0.23443913 0.10333617 0.19888923 0.17699958 0.17214419 0.028534543
0.058770623 -0.0727643 0.06887404 -0.12373482 0.13591135 -0.0027253802 -0.11391553 0.0106937345
-0.008928066 0.044888336 -0.14533792 0.12602302 -0.008359157 0.17245077 0.049972456 -0.009491901
-0.09183207 0.09320732 -0.11969349 0.026887948 0.21092944 0.087757565 0.0458405 -0.04414031
0.0045596436 0.11482758 -0.18245187 -0.07328868 0.16105618 0.04986902 -0.019542323 -0.11453018
0.0058692093 -0.0028394756 -0.11805291 0.051892802 -0.21475995 0.057454754 -0.3144549 0.109307066
-0.18970765 -0.13204858 -0.1658402 -0.089721814 -0.12569645 0.15475368 -0.35184166 0.055026837
-0.110443115 0.13649152 -0.10703756 0.025387062 -0.095705435 0.015285065 -0.024427144 -0.037758246
0.24107325 -0.18679947 0.072959915 0.06351352 0.1608612 0.29213455 0.04365608 -0.01440256
-0.0031924585 0.14754601 -0.08533888 0.034910508 0.041533697 -0.069081955 0.04604152 -0.09571931
0.074264005 -0.0641427 -0.12077607 -0.33675134 0.0643492 -0.074028574 -0.28669629 0.2089329
0.25872338 -0.023255315 -0.021355623 0.102664985 -0.016099105 0.12592596 -0.12018017 0.13601868
0.036256842 0.120480254 0.075992554 0.18335176 -0.36900663 -0.24563916 0.09487095 -0.02989244
-0.0044777147 -0.23669778 0.051886987 0.07832069 0.084614456 0.22164506 0.10194589 -0.007421973
0.018801538 0.08453885 -0.08799951 0.15968618 -0.020405086 -0.1370562 -0.45301786 -0.083332226
0.15806265 -0.17673859 -0.0674883 -0.086808205 0.076883435 -0.04857151 0.057483364 0.20100532
00000000: ef5d 88bd 4a78 49bd 02e5 3a3d 681e 073e
00000010: e95d 20bd 827d 1bbd 1afa f4bd 0ea2 9b3d
00000020: b016 df3d 125f fdbd 9705 e93c 9938 49bd
00000030: 6742 24be a18c 15be 052a a23e 84f9 653c
00000040: 4444 163e e729 12be f03f 9f3d e5ec b63d
00000050: 3cd8 7bbd 3b44 05bd c701 8bbd 3a6e 783e
00000060: 6757 8c3d 5602 19bd 0218 3e3e facc 3abe
00000070: f4c7 073b bb45 a33d b7cb 173d a881 583e
00000080: d231 a93d be19 bd3d 6c89 81be 5a6a a53d
00000090: c6d3 68bc a48d a0bc 4cf9 c8bc fd2d 573d
000000a0: da18 04be cdc9 1b3e 20b0 fe3c 3e75 c33d
000000b0: 769c 843d b69c 663e 04b2 ae3d 12b6 ba3d
000000c0: 6e21 89be b3ff d3bc 31ee 0e3d 5258 aebd
000000d0: c76a b8bd 0f07 d1bc bfa6 c63d dd7a 9c3c
000000e0: 980e 23be e1a2 023d 74e0 c43d 9d0e 033e
000000f0: 3c02 f9bd 1376 4fbd a5bd 96bd 161d 13be
00000100: d876 123d 7630 82bd f9e9 b83d 619e f53d
00000110: 1c7f 893c 08ca 7b3e 9dcf 7b3e eae7 713d
00000120: 19cc 833b edae d93d 2d74 7f3e 3c96 9dbe
00000130: 542c 92be 0d43 f33c 374a 0ebd 0fea 17be
00000140: 7c8e e0bd aeda 7d3c ff25 16be 14a2 4f3d
00000150: ad0a c9bc 87e1 69bc 142f 05bd 0a96 e9bd
00000160: 73b5 883c 6520 a73d 9c77 92bd 3175 ecbd
00000170: e3f2 fd3d 32a1 2f3c aa50 54bc aeed 29be
00000180: 22aa afbd 9857 be3c fe0c 2b3d 3936 1d3e
00000190: ce18 4abc 36df 55be fbc0 e7bd f6e3 8d3d
000001a0: 7024 053e 32eb 193e 440a 9f3d f21b c2bc
000001b0: 1837 2f3e 1ebc 0dbe 166b e8bd 4df4 8c3c
000001c0: 9a75 59bd c38b f6bd ee05 2b3d bb91 e83d
000001d0: c4f7 863d e4bd 3fbe 3b91 c53c 529e 153e
000001e0: 9e2f 693d bd0f a83c c972 583d c71b a13d
000001f0: aa1d 223e a488 1bbd 4215 7d3d 8844 c33d
00000200: 43bc 11be 71ab 1a3e d010 70be eaa1 d33d
00000210: 9ea9 4b3e 613f 353e 9146 303e 46c1 e93c
00000220: 77b9 703d 7305 95bd d50d 8d3d ae68 fdbd
00000230: 582c 0b3e 4b9c 32bb 8c4c e9bd c634 2f3c
00000240: 0647 12bc d5dc 373d 77d3 14be 2e0c 013e
00000250: d8f4 08bc ef96 303e ebaf 4c3d eb83 1bbc
00000260: 7412 bcbd 7be3 be3d dc21 f5bd 1d44 dc3c
00000270: e3fd 573e 3dba b33d 40c3 3b3d 78cc 34bd
00000280: 1069 953b b92a eb3d aad4 3abe 6018 96bd
00000290: e9eb 243e 7543 4c3d 3917 a0bc cd8e eabd
000002a0: 7f52 c03b 7f16 3abb b9c5 f1bd 8c8d 543d
000002b0: 08ea 5bbe ad55 6b3d 3c00 a1be 62dc df3d
000002c0: b942 42be be37 07be 03d2 29be 12c0 b7bd
000002d0: 92b6 00be c077 1e3e 9724 b4be d263 613d
000002e0: 0030 e2bd 6fc4 0b3e 8236 dbbd 87f8 cf3c
000002f0: 3601 c4bd 366e 7a3c 6f1b c8bc 64a8 1abd
00000300: e8db 763e 5c48 3fbe 026c 953d 6013 823d
00000310: ccb8 243e a992 953e b8d0 323d b7f8 6bbc
00000320: 9138 51bb 4d16 173e 27c6 aebd 52fe 0e3d
00000330: 3d1f 2a3d d77a 8dbd 0896 3c3d 7c08 c4bd
00000340: ba17 983d 3f5d 83bd 7259 f7bd ac6a acbe
00000350: 83c9 833d 4b9c 97bd dbc9 92be 82f2 553e
00000360: 6477 843e ee81 bebc fdf1 aebc 0542 d23d
00000370: 45e2 83bc bcf2 003e 0521 f6bd 7b48 0b3e
00000380: 0e82 143d 5abe f63d fca1 9b3d 90c0 3b3e
00000390: 70ee bcbe d588 7bbe b34b c23d fee0 f4bc
000003a0: cbb9 92bb e760 72be 7387 543d 9966 a03d
000003b0: 584a ad3d ecf6 623e 02c9 d03d 0634 f3bb
000003c0: af05 9a3c b422 ad3d 1639 b4bd c684 233e
000003d0: 9128 a7bc 7658 0cbe f5f1 e7be 16aa aabd
000003e0: 2ddb 213e f6fa 34be 4e37 8abd 80c8 b1bd
000003f0: 1075 9d3d ebf2 46bd ad73 6b3d 57d4 4d3e

actor_mlp_t.mlp.0.bias f4 [256]
-0.08406783 -0.079374425 -0.2722791 0.17595801 0.09175481 0.06477161 -0.039234463 -0.34996572
-0.5334688 -0.010675668 0.054323953 -0.30889523 -0.28165585 -0.20996648 0.2829982 0.0075422125
0.39963472 -0.29960877 0.30838466 0.106915265 -0.047683835 -0.16631131 -0.37241754 -0.025086854
0.11722732 0.121877074 0.16849306 0.022414379 0.04350772 0.6296437 0.002426605 -0.022668488
-0.14490105 -0.16967638 -0.22594531 -0.22917344 -0.39108592 -0.18210912 -0.38561174 0.04896864
-0.53765047 0.19890584 -0.37330085 0.15934248 0.068236925 0.1332231 0.33119598 -0.0420847
0.25427598 0.3832902 -0.4598725 -0.24395987 -0.1459324 -0.15816778 -0.155244 -0.25499135
-0.43320253 -0.47262785 0.3159091 0.28514093 -0.21686128 0.1623553 -0.05217015 -0.52294147
-0.19268951 -0.36690676 0.218024 -0.10176594 0.084562354 0.27692074 0.1278741 0.25501537
0.36822942 -0.47926858 0.6215335 -0.021751039 -0.1416933 -0.11359177 0.34863544 0.16285726
-0.33717096 -0.26468214 -0.061618444 -0.19175199 0.003415074 0.5768379 0.12209744 -0.54185337
-0.29150796 -0.08487393 0.046338618 0.53977334 0.25409535 -0.16771822 -0.21778835 -0.32410315
-0.39044192 -0.051092625 -0.13734275 -0.16732186 -0.13002609 -0.21570644 -0.11663664 0.10822112
0.16403818 0.16216075 -0.0588277 -0.29573178 -0.18573622 0.35752815 -0.13908911 -0.15994695
-0.17772107 0.12356095 0.37432733 0.16114509 0.24064463 0.0973549 0.15437989 -0.25279662
0.08262521 -0.34369153 0.069214754 0.16579726 0.27488044 0.25677657 -0.12708895 -0.09993089
-0.33525002 0.22080876 -0.062161475 0.38940015 0.28817204 0.44507647 0.27582732 0.05414196
-0.31629717 0.21739346 -0.2896906 0.3583015 -0.042508796 0.0997541 -0.07381549 0.31196082
0.08054842 0.5463325 -0.29037791 -0.09657319 0.2332131 0.31386346 -0.29521385 -0.3351208
0.14360447 -0.13895233 0.119591966 0.20230371 -0.33398047 0.098745234 -0.1537348 0.17392011
0.6062588 -0.21742894 -0.08330776 -0.15471938 0.46311495 -0.42112637 0.22129977 0.06276077
-0.19386996 0.26525488 -0.2214869 -0.0823057 -0.3192912 0.2928664 0.026216656 -0.0006470653
0.5185262 -0.11471855 -0.005154762 0.013617409 0.16950344 -0.44401926 -0.07191477 -0.079073966
0.040880624 -0.04912737 -0.14667504 0.24361172 -0.06652802 -0.11886183 0.03892885 0.1195824
-0.4688687 0.09757431 0.4795586 0.028974367 -0.52700543 -0.2137361 -0.08982974 -0.2407952
0.25495273 -0.25309634 0.0019722753 -0.3708193 -0.03126635 0.15114895 0.3040342 -0.14020905
0.03749167 0.21622902 -0.19631459 0.05547748 0.13839965 -0.25265598 0.23145758 -0.028303355
0.002375913 0.07421581 -0.10742041 0.012372306 0.07355482 0.09619922 -0.0824024 0.2983218
0.061106306 -0.31351304 -0.50565964 0.07210846 0.356629 -0.31768954 0.31163272 -0.19907406
-0.09739644 -0.19704068 0.272405 0.37206304 -0.6936014 -0.2930209 -0.44347188 0.21857533
0.08630374 0.25189644 -0.02559279 -0.04688785 -0.09709621 -0.062853806 0.07190311 0.024188677
-0.04524814 -0.23116666 -0.22673604 0.02174765 -0.26174533 0.33554405 -0.38595182 -0.42055824
00000000: c12b acbd 0f8f a2bd 2b68 8bbe 562e 343e
00000010: f2e9 bb3d faa6 843d 51b4 20bd b52e b3be
00000020: 6991 08bf ffe8 2ebc cb82 5e3d 8427 9ebe
00000030: 3235 90be 7401 57be 24e5 903e aa24 f73b
00000040: ec9c cc3e 5266 99be 98e4 9d3e 64f6 da3d
00000050: 2050 43bd 834d 2abe 83ad bebe f282 cdbc
00000060: e114 f03d b09a f93d 7289 2c3e 5c9e b73c
00000070: 2735 323d 5430 213f ad07 1f3b 44b3 b9bc
00000080: f160 14be a5bf 2dbe 355e 67be 71ac 6abe
00000090: 6a3c c8be d07a 3abe e76e c5be 5793 483d
000000a0: 76a3 09bf f9ad 4b3e 4a21 bfbe ad2a 233e
000000b0: cdbf 8b3d a36b 083e 8592 a93e 0261 2cbd
000000c0: 7630 823e 9d3e c43e 6974 ebbe 9ed0 79be
000000d0: 4e6f 15be bcf6 21be 48f8 1ebe 3a8e 82be
000000e0: b9cc ddbe 47fc f1be d6be a13e fefd 913e
000000f0: e210 5ebe 7840 263e 5eb0 55bd 7edf 05bf
00000100: 6650 45be 34db bbbe af41 5f3e a96a d0bd
00000110: 072f ad3d 8ec8 8d3e 6ef1 023e 6091 823e
00000120: 9188 bc3e b162 f5be d21c 1f3f 3c2f b2bc
00000130: 0c18 11be cda2 e8bd 5880 b23e 0ec4 263e
00000140: aca1 acbe 6b84 87be 9f63 7cbd a25a 44be
00000150: 6fcf 5f3b a6ab 133f 390e fa3d e7b6 0abf
00000160: 8840 95be 62d2 adbd 90cd 3d3d 962e 0a3f
00000170: c918 823e 53be 2bbe e903 5fbe d9f0 a5be
00000180: 01e8 c7be 8046 51bd 94a3 0cbe 6c56 2bbe
00000190: 8f25 05be 26e2 5cbe 31df eebd 09a3 dd3d
000001a0: a0f9 273e 780d 263e 50f5 70bd 286a 97be
000001b0: a331 3ebe ee0d b73e 606d 0ebe 22c9 23be
000001c0: 83fc 35be 860d fd3d d5a7 bf3e 3803 253e
000001d0: 8c6b 763e 0162 c73d c315 1e3e 8f6e 81be
000001e0: 6837 a93d 56f8 afbe 77c0 8d3d c2c6 293e
000001f0: 21bd 8c3e 3878 833e 9b23 02be 91a8 ccbd
00000200: e4a5 abbe b11b 623e 089d 7ebd 755f c73e
00000210: 498b 933e 10e1 e33e 3d39 8d3e f6c3 5d3d
00000220: b4f1 a1be 649c 5e3e 5452 94be 4b73 b73e
00000230: b41d 2ebd e14b cc3d 932c 97bd 54b9 9f3e
00000240: 92f6 a43d 72dc 0b3f 6aac 94be 2ac8 c5bd
00000250: 6acf 6e3e b6b2 a03e 4526 97be f494 abbe
00000260: 0d0d 133e 8549 0ebe a2ec f43d b428 4f3e
00000270: 7dff aabe f13a ca3d a86c 1dbe 1d18 323e
00000280: c733 1b3f b1a5 5ebe 429d aabd c26e 1ebe
00000290: 671d ed3e e09d d7be 689c 623e b888 803d
000002a0: d985 46be 7dcf 873e 76cd 62be e48f a8bd
000002b0: 237a a3be 96f2 953e 50c4 d63c d19f 29ba
000002c0: 22be 043f 8ff1 eabd 47e9 a8bb 8e1b 5f3c
000002d0: 4f92 2d3e 7e56 e3be 0d48 93bd 88f1 a1bd
000002e0: 7172 273d c839 49bd fb31 16be 5a75 793e
000002f0: d83f 88bd d56d f3bd dc73 1f3d 9ee7 f43d
00000300: 8f0f f0be 0ad5 c73d b488 f53e a75b ed3c
00000310: d4e9 06bf a3dd 5abe a8f8 b7bd 0493 76be
00000320: 2a89 823e d895 81be 4a41 013b 07dc bdbe
00000330: 2511 00bd cac6 1a3e 5faa 9b3e f692 0fbe
00000340: de90 193d 246b 5d3e b106 49be 5b3c 633d
00000350: a3b8 0d3e 205c 81be 3703 6d3e 70dc e7bc
00000360: 35b5 1b3b 75fe 973d 3bff dbbd 36b5 4a3c
00000370: e9a3 963d 1904 c53d 97c2 a8bd a3bd 983e
00000380: 9b4a 7a3d c884 a0be e972 01bf 9aad 933d
00000390: 1498 b63e 34a8 a2be 538e 9f3e 12da 4bbe
000003a0: c977 c7bd 08c5 49be ab78 8b3e 0c7f be3e
000003b0: dd8f 31bf d606 96be bf0e e3be 36d2 5f3e
000003c0: 04c0 b03d 92f8 803e f9a7 d1bc 790d 40bd
000003d0: 61da c6bd 7fb9 80bd f041 933d 5527 c63c
000003e0: 1d56 39bd f4b6 6cbe 7e2d 68be 2128 b23c
000003f0: 7c03 86be 6ecc ab3e 7a9b c5be 6953 d7be

actor_mlp_t.mlp.2.weight f4 [128, 256]
0.04386112 0.08043288 -0.21871655 -0.02438007 -0.12765497 0.051156685 -0.15848826 -0.030689929
0.044359505 -0.14576842 0.13640662 -0.08412871 -0.050489806 -0.1360981 -0.060382184 -0.07596481
-0.065475725 0.099452645 -0.123608276 -0.078489 -0.06725772 -0.121163286 0.1126419 0.0041231634
-0.15168421 -0.042037677 0.061486114 0.0152576 -0.17568289 -0.20855321 -0.17674926 0.13407107
-0.25123796 0.04287628 0.075643435 -0.0390859 -0.12339252 -0.05978689 -0.36755764 0.060373828
0.061315756 0.006423282 0.09411331 -0.2849133 -0.11232054 -0.24153215 0.05804135 -0.14491956
-0.08707488 0.0799392 0.22506209 0.00075054524 -0.18363209 0.04556602 0.048242114 0.071198404
-0.013533389 0.044649083 -0.002422269 0.0077088783 -0.046989735 0.03557569 -0.12295389 -0.019625029
-0.14375608 0.084519595 -0.08481426 0.13390616 -0.026492294 0.0940433 0.2377523 -0.15247287
-0.15548834 -0.089038745 0.089149624 0.055919796 0.057695065 -0.009696629 -0.28137612 -0.15413167
-0.002124927 -0.0792383 -0.19512102 -0.19836916 -0.2006606 -0.08495597 0.12398471 -0.06648743
-0.022218429 0.07642058 0.088561185 -0.06635932 0.02370092 -0.050554987 0.15758008 -0.20273931
0.28306872 -0.077914506 -0.014463991 -0.017464966 -0.22356467 0.16117926 0.102713466 -0.11664844
0.019450288 -0.014927645 0.016071232 0.09864526 -0.11203518 0.10849378 0.062104743 -0.22944811
-0.08216428 -0.37959456 -0.07809107 -0.2269887 -0.23906513 -0.03214344 0.18354 -0.21460028
-0.11436189 -0.015724577 -0.19395186 -0.13911119 -0.08265425 -0.20278181 0.19166592 -0.13615012
0.07246749 0.014127947 0.0782098 -0.053101175 0.28932843 -0.056411177 -0.042498942 0.13006267
0.022511909 0.0534439 0.120358765 -0.05013703 -0.30008456 0.021349287 0.14240411 -0.19581033
-0.109139524 -0.09804806 0.20830882 -0.029727006 -0.15099642 0.17960668 -0.03033261 0.013165523
-0.031166818 0.29777226 -0.46210143 -0.21354116 0.13713074 -0.07441082 -0.014503223 -0.13095108
-0.10367863 0.062542476 -0.20526299 0.19811177 -0.2294306 -0.15729573 0.11155399 -0.08173197
0.14961545 -0.014307165 0.054896705 -0.11536409 -0.24400637 -0.05335424 0.17068592 0.014116024
-0.19166149 -0.1674843 -0.034275886 0.17014693 -0.2450714 0.25160336 -0.2382153 -0.4112802
0.034936775 -0.033664305 0.33443183 -0.21432397 -0.084588766 0.02293959 -0.24557625 -0.12695655
-0.044430364 -0.036790743 -0.23830016 0.20628408 0.05829796 0.15297417 -0.015198641 0.18890889
0.02648514 0.19131595 -0.024275744 0.022474438 0.093596056 -0.06340325 -0.044890463 0.17752339
-0.10651191 0.080318116 0.05760489 0.1352082 -0.04711405 -0.028407857 -0.010284578 -0.018538702
0.010072443 -0.043525234 0.25934863 0.033303864 -0.018224813 0.1387003 -0.024621293 -0.06171273
0.099306084 -0.1964592 0.007537421 0.036623146 -0.2773541 -0.21996492 -0.25507215 0.005240828
0.045712907 0.027480705 -0.10897539 0.1263071 0.04963316 0.18857358 0.05883247 -0.22262979
0.021619363 -0.050838947 0.09786713 0.09416568 -0.16481327 0.08432639 -0.13489878 0.05048395
-0.3118183 -0.28257793 -0.11752083 -0.09619042 0.083518736 -0.10306413 0.018868553 -0.09761202
00000000: b8a7 333d feb9 a43d 3bf7 5fbe b6b8 c7bc
00000010: fcb7 02be ac89 513d bf4a 22be 7269 fbbc
00000020: 50b2 353d 5144 15be 2dae 0b3e ac4b acbd
00000030: 66ce 4ebd 4d5d 0bbe 4f53 77bd 7093 9bbd
00000040: 2318 86bd d4ad cb3d 5626 fdbd d7be a0bd
00000050: 6abe 89bd 7524 f8bd ccb0 e63d 9a1b 873b
00000060: 1b53 1bbe b32f 2cbd ddd8 7b3d 03fb 793c
00000070: 37e6 33be f98e 55be c2fd 34be ed49 093e
00000080: 43a2 80be 0a9f 2f3d f2ea 9a3d 8918 20bd
00000090: 38b5 fcbd 19e3 74bd 8430 bcbe 8c4a 773d
000000a0: 3b26 7b3d 657a d23b 7bbe c03d 28e0 91be
000000b0: 5008 e6bd 3454 77be c4bc 6d3d cb65 14be
000000c0: 5154 b2bd 2ab7 a33d ad76 663e 3dc0 443a
000000d0: 0d0a 3cbe 6fa3 3a3d 8699 453d 78d0 913d
000000e0: 26bb 5dbc f5e1 363d eebe 1ebb c29a fc3b
000000f0: 4f78 40bd d1b7 113d 40cf fbbd abc4 a0bc
00000100: cb34 13be 9c18 ad3d 19b3 adbd b21e 093e
00000110: 5e06 d9bc c699 c03d 5775 733e d921 1cbe
00000120: 5638 1fbe f259 b6bd 1494 b63d 280c 653d
00000130: a951 6c3d 9cde 1ebc 8810 90be b1d4 1dbe
00000140: 5c42 0bbb b147 a2bd cecd 47be 4921 4bbe
00000150: f979 4dbe 65fd adbd b2eb fd3d 902a 88bd
00000160: 6c03 b6bc 6582 9c3d 915f b53d 65e7 87bd
00000170: 6f28 c23c bf12 4fbd ac5c 213e e59a 4fbe
00000180: 62ee 903e a491 9fbd 60fa 6cbc b012 8fbc
00000190: 23ee 64be 2d0c 253e 705b d23d 61e5 eebd
000001a0: 3656 9f3c 1593 74bc d1a7 833c 8706 ca3d
000001b0: b372 e5bd fd31 de3d 8b61 7e3d 72f4 6abe
000001c0: bf45 a8bd 385a c2be 36ee 9fbd ba6f 68be
000001d0: 7dcd 74be d7a8 03bd e9f1 3b3e 2dc0 5bbe
000001e0: 9136 eabd d4d0 80bc 519b 46be 2a73 0ebe
000001f0: a246 a9bd 09a6 4fbe 1244 443e f06a 0bbe
00000200: d669 943d e878 673c 762c a03d 9e80 59bd
00000210: db22 943e 680f 67bd 5f13 2ebd 262f 053e
00000220: e56a b83c fee7 5a3d a87e f63d 7d5c 4dbd
00000230: afa4 99be b3e4 ae3c 62d2 113e 8182 48be
00000240: 8b84 dfbd 6ccd c8bd e84e 553e 0d86 f3bc
00000250: ce9e 1abe d0ea 373e 187c f8bc 35b4 573c
00000260: 8e51 ffbc 9b75 983e 8f98 ecbe 89aa 5abe
00000270: 006c 0c3e b364 98bd ed9e 6dbc 0a18 06be
00000280: 7655 d4bd 4516 803d 7630 52be d0dd 4a3e
00000290: dbef 6abe 2212 21be 6b76 e43d 1763 a7bd
000002a0: cb34 193e 9968 6abc 5edb 603d 0244 ecbd
000002b0: cedc 79be fa89 5abd 4ac8 2e3e e546 673c
000002c0: e942 44be 0181 2bbe df64 0cbd ff3a 2e3e
000002d0: fff3 7abe 28d2 803e b6ee 73be 5293 d2be
000002e0: dd19 0f3d 95e3 09bd a63a ab3e be77 5bbe
000002f0: e03c adbd cfeb bb3c 5778 7bbe e600 02be
00000300: 9dfc 35bd e4b1 16bd f504 74be 223c 533e
00000310: d7c9 6e3d 43a5 1c3e b903 79bc 5571 413e
00000320: 5df7 d83c 54e8 433e eddd c6bc 501c b83c
00000330: 4aaf bf3d 90d9 81bd 10df 37bd b1c8 353e
00000340: eb22 dabd d37d a43d 1bf3 6b3d 0574 0a3e
00000350: a9fa 40bd 98b7 e8bc a680 28bc 7ade 97bc
00000360: e306 253c 8447 32bd 58c9 843e a269 083d
00000370: 344c 95bc 7407 0e3e 98b2 c9bc 7dc6 7cbd
00000380: fd60 cb3d 9a2c 49be 78fc f63b 2702 163d
00000390: 5b01 8ebe 7c3e 61be d198 82be 40bb ab3b
000003a0: 753d 3b3d 371f e13c 7d2e dfbd a656 013e
000003b0: 244c 4b3d 6f19 413e 51fa 703d 10f9 63be
000003c0: 171b b13c 803c 50bd 906e c83d f0d9 c03d
000003d0: cfc4 28be 50b3 ac3d e822 0abe 42c8 4e3d
000003e0: a6a6 9fbe 0eae 90be c3ae f0bd 7cff c4bd
000003f0: df0b ab3d 4913 d3bd 3992 9a3c d0e8 c7bd

actor_mlp_t.mlp.2.bias f4 [128]
-0.02248367 -0.36206317 -0.09407866 -0.19934519 -0.16006075 -0.18245444 -0.19584887 -0.24548502
-0.11004567 -0.15748185 -0.15661773 -0.018175438 -0.15055119 -0.06986974 -0.27653438 -0.35175276
-0.05140161 -0.1988339 -0.11387322 -0.27063745 -0.18845716 -0.06018321 -0.031733938 -0.26062557
-0.08318045 -0.24033867 -0.0401895 -0.25310317 -0.1846076 -0.2935305 -0.19305834 -0.14274427
-0.21563315 -0.05747126 -0.32767403 -0.16274574 -0.067437835 -0.12129333 -0.37369564 -0.16822952
-0.06115021 -0.06805155 -0.1185874 -0.22534055 -0.18274462 -0.15159245 -0.04359055 -0.2799284
-0.30886984 -0.11522431 -0.2418312 -0.31347322 -0.22833006 -0.09453711 -0.046056658 -0.17374104
-0.19763906 -0.04387574 -0.2990396 -0.110090055 -0.042715292 -0.22895776 -0.025065001 0.0067265225
-0.05447626 -0.2700071 -0.09195248 -0.12415814 -0.25802937 -0.114283204 -0.113695525 -0.20550722
-0.3460468 -0.17576483 0.07337966 -0.03576636 -0.12809135 -0.31143147 -0.04811598 -0.044345964
-0.20223813 -0.16539964 -0.29004273 -0.08535009 -0.044303223 -0.035336047 -0.040408235 -0.40439093
-0.2019201 -0.24672656 -0.067383274 -0.22867212 -0.100649394 -0.19685297 -0.0502087 -0.30504155
-0.363902 -0.10112705 -0.2032343 -0.029314347 -0.073575445 -0.13061775 -0.07478161 -0.15860198
-0.38206923 -0.19647808 -0.090451315 -0.30384988 -0.018866312 -0.08269611 -0.16711232 -0.094498865
-0.03741344 -0.23414741 -0.13078569 -0.09182711 -0.11186718 -0.31524503 -0.08600373 -0.08495782
-0.010320425 -0.1296951 -0.038840424 -0.087213 -0.08073943 -0.1286379 -0.24626729 -0.10518228
00000000: ac2f b8bc 5860 b9be 50ac c0bd 2521 4cbe
00000010: f7e6 23be 56d5 3abe 9b8c 48be 6d60 7bbe
00000020: a05f e1bd ec42 21be 6660 20be a8e4 94bc
00000030: 172a 1abe de17 8fbd ea95 8dbe f018 b4be
00000040: 7f8a 52bd 1d9b 4bbe 5d36 e9bd fe90 8abe
00000050: eafa 40be ab82 76bd 72fb 01bd b770 85be
00000060: 835a aabd 571b 76be bf9d 24bd bd96 81be
00000070: c609 3dbe a149 96be 16b1 45be 8e2b 12be
00000080: f0ce 5cbe fc66 6bbd e4c4 a7be d2a6 26be
00000090: d91c 8abd a368 f8bd 0955 bfbe 5c44 2cbe
000000a0: a578 7abd 9c5e 8bbd f3dd f2bd acbf 66be
000000b0: 6821 3bbe 0d3b 1bbe 018c 32bd c652 8fbe
000000c0: 3024 9ebe b9fa ebbd 99a2 77be 907f a0be
000000d0: 5bcf 69be ac9c c1bd e8a5 3cbd 2ce9 31be
000000e0: e561 4abe 0cb7 33bd b81b 99be e576 e1bd
000000f0: 3bf6 2ebd e773 6abe 1e55 cdbc 296a dc3b
00000100: 8022 5fbd 5f3e 8abe 9551 bcbd 9f46 febd
00000110: 6d1c 84be 500d eabd 33d9 e8bd 7c70 52be
00000120: 0c2d b1be b2fb 33be 1348 963d bf7f 12bd
00000130: 612a 03be f273 9fbe 4315 45bd 1da4 35bd
00000140: 8317 4fbe 865e 29be 7b80 94be 07cc aebd
00000150: 4c77 35bd 88bc 10bd 1b83 25bd 540c cfbe
00000160: 25c4 4ebe e3a5 7cbe 3e00 8abd 0629 6abe
00000170: 4521 cebd d393 49be a3a7 4dbd 682e 9cbe
00000180: 5d51 babe b31b cfbd a71c 50be a424 f0bc
00000190: b9ae 96bd a9c0 05be 1a27 99bd 8f68 22be
000001a0: 949e c3be 8d31 49be 8a3e b9bd 3692 9bbe
000001b0: 868d 9abc 945c a9bd 7e1f 2bbe 9f88 c1bd
000001c0: d63e 19bd 57c4 6fbe afec 05be da0f bcbd
000001d0: 9f1a e5bd cc67 a1be b922 b0bd 5efe adbd
000001e0: 0017 29bc cbce 04be 2317 1fbd bb9c b2bd
000001f0: b75a a5bd a7b9 03be 7e2d 7cbe cf69 d7bd

actor_mlp_c.mlp.0.weight f4 [256, 28]
0.10153027 -0.13357298 0.08982347 0.034790214 0.0070308014 -0.0701526 0.0026563536 0.03595406
-0.18064623 -0.11858996 0.042469107 -0.016848808 -0.04503791 0.025737118 0.11371744 0.21046561
-0.09369389 -0.026200218 0.1928656 -0.063686006 -0.21201308 -0.1251104 0.010344956 -0.17507151
-0.08832591 -0.028413445 -0.06297796 0.061164428 -0.038415972 -0.11848325 0.022696707 -0.061116237
-0.07681984 -0.075144276 -0.027989486 0.025770769 0.044140663 0.13108249 0.14934371 0.12535678
0.03162331 -0.07909158 -0.041050598 0.023243848 0.12998615 -0.2310473 0.17222959 0.024626322
-0.30985725 0.13983652 0.002634256 -0.003332272 0.0063364855 -0.08343535 0.1438816 -0.06358541
0.049150895 -0.07474315 -0.040867023 -0.19879961 -0.06662438 -0.21542431 -0.16446823 0.07711004
-0.13619727 -0.0007751961 0.16133012 -0.062017072 -0.15690584 0.06252561 -0.16015401 0.03667796
0.021445187 -0.042421214 -0.15071583 -0.035518598 0.18013334 0.04135547 0.053030726 0.1331039
0.038172707 -0.07784872 0.064837895 0.095202565 -0.029044108 -0.06825355 -0.12261514 0.049758278
0.04053916 0.101006806 0.15771566 0.08504074 -0.1426913 -0.21386412 0.011815851 0.005198924
0.15580139 0.17083277 0.052482013 -0.01933171 -0.20144387 0.19895074 0.1889691 0.056374434
-0.12440779 0.15967382 -0.17291015 0.005031565 -0.07197313 -0.056251884 -0.10709354 0.08100486
0.048038173 -0.10801911 -0.058752336 0.025414348 0.10558085 0.12322834 0.01583972 0.016778236
0.27684915 0.13208397 0.10984991 -0.1882506 -0.07479465 0.03381964 -0.13484634 -0.13549453
-0.067523256 0.03156835 0.07358423 -0.03168202 -0.061944634 0.11083192 0.12593254 0.1706411
0.04864794 -0.015692277 -0.11499538 -0.13089098 -0.06669308 0.06493859 0.23242004 0.046315428
0.0027003365 -0.044376418 -0.019192481 -0.087496996 -0.11793651 -0.086454146 -0.00923831 -0.0034094749
0.0037716613 -0.02500889 0.012316718 0.03896625 -0.22428343 -0.13520567 -0.01441127 0.07513035
-0.08982419 -0.07028034 0.034096297 -0.17138508 -0.10281889 0.037771817 0.21892151 0.11557147
0.1902088 0.10786282 -0.057473484 0.075677454 -0.052420493 -0.09234096 0.065477245 -0.05787838
-0.050106708 -0.07208649 -0.0687806 0.1380834 0.076074496 -0.21128562 -0.048583638 0.19516203
0.044383112 0.055898033 -0.02355521 -0.26860043 0.0537156 0.06492469 0.28691515 0.003722115
0.16333228 0.20597792 -0.0036166273 -0.12557605 0.013478203 -0.023414517 0.018858021 -0.06518524
-0.054842725 0.21219236 0.11330489 0.24400732 0.1711195 0.08974067 -0.011487472 -0.06589379
-0.032526005 0.11850326 0.07117052 0.06999307 -0.017529754 0.122626334 0.08651603 -0.22962017
0.027482893 -0.08897388 -0.09160723 -0.22092727 -0.029647943 -0.2158207 -0.15237524 -0.053510215
0.08541068 -0.06441757 -0.11724707 -0.31180963 -0.09710999 -0.050504085 0.18877219 0.06968302
0.0052622757 0.02702117 0.11903736 -0.008589495 -0.11164813 -0.046438158 0.051504046 -0.05607036
-0.36925003 0.05214452 -0.042795446 -0.21160202 0.114851646 0.0072042756 0.24244829 0.07271101
0.170882 0.02845158 -0.067192614 0.039744757 0.14118728 0.091312006 0.0900017 -0.024671448
00000000: 1aef cf3d 5bc7 08be 5ef5 b73d 2f80 0e3d
00000010: a362 e63b 2bac 8fbd 3816 2e3b 9044 133d
00000020: 53fb 38be 4bdf f2bd 16f4 2d3d 8306 8abc
00000030: ac79 38bd a6d6 d23c b0e4 e83d 4c84 573e
00000040: 95e2 bfbd d7a1 d6bc 8f7e 453e cf6d 82bd
00000050: f519 59be f11c 00be e47d 293c f245 33be
00000060: 37e4 b4bd 50c3 e8bc 97fa 80bd 8d87 7a3d
00000070: 115a 1dbd 59a7 f2bd 72ee b93c 0555 7abd
00000080: b853 9dbd 3ee5 99bd 354a e5bc 381d d33c
00000090: d7cc 343d 7d3a 063e 8fed 183e 875d 003e
000000a0: 7287 013d c4fa a1bd ac24 28bd e269 be3c
000000b0: 171b 053e aa97 6cbe f45c 303e 24bd c93c
000000c0: 9ca5 9ebe 4e31 0f3e 7ba3 2c3b 3f62 5abb
000000d0: 4ba2 cf3b 27e0 aabd b355 133e 1139 82bd
000000e0: 7352 493d f012 99bd 2e64 27bd 2092 4bbe
000000f0: 5d72 88bd 3198 5cbe 5c6a 28be deeb 9d3d
00000100: 4c77 0bbe 8836 4bba b933 253e 9d05 7ebd
00000110: edab 20be 6d0d 803d 6aff 23be a13b 163d
00000120: d1ad af3c dec1 2dbd 4055 1abe f37b 11bd
00000130: e074 383e 5a64 293d bf36 593d 644c 083e
00000140: fc5a 1c3d 266f 9fbd bbc9 843d 90f9 c23d
00000150: e9ed edbc 84c8 8bbd a61d fbbd 56cf 4b3d
00000160: 640c 263d a8dc ce3d 3780 213e d729 ae3d
00000170: ab1d 12be 32ff 5abe 4597 413c bc5b aa3b
00000180: 668a 1f3e c9ee 2e3e 61f7 563d 895d 9ebc
00000190: 4d47 4ebe beb9 4b3e 1e81 413e e1e8 663d
000001a0: 83c9 febd 8981 233e 5c0f 31be d4df a43b
000001b0: a666 93bd 6068 66bd dc53 dbbd e0e5 a53d
000001c0: adc3 443d 2039 ddbd 4aa6 70bd c031 d03c
000001d0: c63a d83d 245f fc3d 4dc2 813c 8372 893c
000001e0: 2cbf 8d3e 0541 073e fdf8 e03d c4c4 40be
000001f0: f02d 99bd 7686 0a3d 2915 0abe 14bf 0abe
00000200: a249 8abd d04d 013d 54b3 963d 01c5 01bd
00000210: a8b9 7dbd d8fb e23d 76f4 003e 8abc 2e3e
00000220: 1043 473d 178d 80bc b382 ebbd 4908 06be
00000230: 6296 88bd 86fe 843d 85ff 6d3e 3fb5 3d3d
00000240: 21f8 303b 0cc4 35bd 8d39 9dbc a031 b3bd
00000250: b288 f1bd df0e b1bd 485c 17bc 7f71 5fbb
00000260: fa2d 773b 72df ccbc 0fcc 493c 139b 1f3d
00000270: 8eaa 65be 5b73 0abe 3f1d 6cbc f1dd 993d
00000280: bff5 b7bd 24ef 8fbd 8fa8 0b3d 927f 2fbe
00000290: b692 d2bd 9fb6 1a3d f62c 603e bcb0 ec3d
000002a0: 18c6 423e 2fe7 dc3d 5169 6bbd c8fc 9a3d
000002b0: dfb6 56bd 421d bdbd ef18 863d e111 6dbd
000002c0: b13c 4dbd 15a2 93bd d8dc 8cbd bc65 0d3e
000002d0: f2cc 9b3d 425b 58be a3ff 46bd 8ed8 473e
000002e0: 11cb 353d 56f5 643d dbf6 c0bc ff85 89be
000002f0: e404 5c3d 3cf7 843d 8be6 923e baee 733b
00000300: 9440 273e e0eb 523e f004 6dbb 0297 00be
00000310: aed3 5c3c cdcf bfbc 237c 9a3c d77f 85bd
00000320: c4a2 60bd f448 593e 650c e83d 0edd 793e
00000330: f339 2f3e f5c9 b73d f335 3cbc 53f3 86bd
00000340: fd39 05bd d6b1 f23d d9c1 913d 8758 8f3d
00000350: 8f9a 8fbc 8423 fb3d 512f b13d 8d21 6bbe
00000360: ce23 e13c f037 b6bd 929c bbbd c23a 62be
00000370: 3ee0 f2bc 1a00 5dbe 4108 1cbe 872d 5bbd
00000380: cbeb ae3d 5ced 83bd 3b1f f0bd 83a5 9fbe
00000390: 9ae1 c6bd 5fdd 4ebd 7f4d 413e f9b5 8e3d
000003a0: 2b6f ac3b 805b dd3c dcc9 f33d f4ba 0cbc
000003b0: c6a7 e4bd f035 3ebd e8f5 523d 09aa 65bd
000003c0: 570e bdbe 7e95 553d 474a 2fbd 33ae 58be
000003d0: 5737 eb3d d811 ec3b 5d44 783e 83e9 943d
000003e0: b1fb 2e3e 4a13 e93c 489c 89bd 66cb 223d
000003f0: 6693 103e ca01 bb3d d052 b83d c71b cabc

actor_mlp_c.mlp.0.bias f4 [256]
-0.09698708 0.127988 -0.038954657 0.11203789 0.13019699 -0.17135265 -0.013509563 0.09020175
0.033051383 -0.031383466 -0.006960866 0.018270511 -6.095134e-07 -0.0038594694 -0.030227466 -0.08738342
-0.008026415 0.04114703 -0.027357232 0.08505566 -0.032279935 0.15643995 -0.048358146 0.11703908
0.0085823955 0.08507974 0.06524542 -0.037121817 -0.03297684 0.13809589 0.02228194 0.041685466
-0.034096014 -0.0023571984 -0.13634908 0.034254275 -0.055052657 -0.04902334 0.05683862 -0.0641409
0.038928 -0.0306134 0.016033446 -0.012010366 0.07537858 0.1909322 -0.04307628 0.06964746
-0.017709985 -0.042636823 -0.13742654 -0.026037758 0.15743694 0.1120394 -0.13857813 -0.031938843
0.19806951 -0.06045426 0.022881798 0.019339893 0.048304614 -0.083514735 0.037865825 -0.002365904
-0.0016195402 -0.02970653 -0.12106002 0.012203165 -0.008931541 0.0060585137 0.037807014 -0.012506963
-0.07092192 -0.033116166 -0.05590459 -0.047719456 0.052377287 -0.08583002 0.15094717 -0.05933104
-0.08575222 -0.04846633 0.053039275 0.20353587 0.120049074 -0.05524044 -0.02778811 0.09337667
0.049991164 0.030474585 0.056814115 0.07228883 -0.009753033 -0.02725386 0.016978035 -0.1026243
0.03694508 0.03455071 0.02047526 -0.039979395 0.01148024 -0.06726043 0.0035969026 0.022162052
0.1197364 -0.09434206 -0.0073305266 0.008602072 -0.08974711 0.10384778 0.05918087 -0.018849757
-0.07015726 0.044798322 0.020503096 0.036430363 0.086372264 0.027111141 -0.03636564 0.034727603
0.07805558 0.10672738 -0.08207393 0.06580808 -0.03400873 -0.059971713 0.0033778483 0.010708372
-0.048354868 0.052584518 0.06088767 0.030307293 0.14678614 0.021767836 0.05892499 0.1542555
0.042954724 0.053934887 -0.17346509 0.08115465 0.11515108 0.039987244 0.07957186 -0.039134182
-0.046245836 0.08458547 0.055200204 0.014520885 -0.029357871 0.001909034 -0.0315656 0.060891975
-0.018321281 -0.011586876 0.016333507 -0.013244331 0.0042126225 0.10400631 0.020682903 -0.12290549
-0.048295926 -0.073864385 -0.014782397 0.10770729 0.016403101 0.037994094 -0.039206505 0.10169188
-0.09191684 -0.041755535 0.058577556 -0.10536243 0.08391859 -0.05040179 -0.019053148 0.06322587
0.053915966 0.023633169 -0.010739879 0.004139252 -0.09864509 0.07107971 -0.009336636 0.102176495
0.08424091 0.060106367 0.072291076 -0.059528522 0.011231357 0.08851402 0.034394342 0.06004941
-0.0685573 0.043507878 0.14861487 0.08812086 -0.124052785 0.004010857 -0.02203078 0.025553199
0.12465241 -0.05330388 0.06348379 0.04180626 0.07626077 0.10949017 -0.0019265317 0.070474915
-0.04416949 0.106271856 -0.04430437 -0.006954104 0.15571181 -0.08788725 0.09507829 0.056943744
0.0716933 -0.12106778 0.122224815 0.010703188 -0.01481073 0.18369076 -0.025260475 -0.020623803
-0.06751359 0.004142183 0.014933309 0.05604196 -0.0037308831 0.0826412 -0.056926135 -0.062468775
0.054678947 0.051388305 0.07943047 0.022744585 -0.06489377 -0.03536071 -0.08688733 -0.008489737
-0.08534612 -0.0056930766 -0.055732805 0.014157904 -0.07615873 -0.039883304 -0.15888661 0.14868338
0.0686029 -0.008554013 -0.108806506 -0.05575867 -0.055532478 -0.052703254 -0.08882989 0.081365
00000000: 2aa1 c6bd 490f 033e eb8e 1fbd 1f74 e53d
00000010: 5c52 053e 1277 2fbe 3757 5dbc b2bb b83d
00000020: e360 073d f38b 00bd fa17 e4bb 0aac 953c
00000030: 719d 23b5 27ef 7cbb 979f f7bc 14f6 b2bd
00000040: 3981 03bc ca89 283d 461c e0bc a931 ae3d
00000050: f737 04bd cb31 203e 3113 46bd 2fb2 ef3d
00000060: 2d9d 0c3c 493e ae3d 649f 853d 0c0d 18bd
00000070: b912 07bd 0269 0d3e 9d88 b63c 61be 2a3d
00000080: 43a8 0bbd 3a7b 1abb 189f 0bbe 364e 0c3d
00000090: e57e 61bd b3cc 48bd 9dcf 683d 4e5c 83bd
000000a0: f772 1f3d f4c8 fabc 9358 833c 20c7 44bc
000000b0: 1660 9a3d bb83 433e c170 30bd 54a3 8e3d
000000c0: 8814 91bc f3a3 2ebd 8bb9 0cbe 234d d5bc
000000d0: 2637 213e ea74 e53d 6de7 0dbe 4ed2 02bd
000000e0: bcd2 4a3e e39e 77bd 9c72 bb3c b26e 9e3c
000000f0: 0fdb 453d c609 abbd 3219 1b3d 480d 1bbb
00000100: c046 d4ba 1c5b f3bc 51ee f7bd c9ef 473c
00000110: 9955 12bc 7f86 c63b 87db 1a3d 01ea 4cbc
00000120: 833f 91bd d1a4 07bd 36fc 64bd 7a75 43bd
00000130: 9189 563d a6c7 afbd e591 1a3e 1b05 73bd
00000140: dc9e afbd a184 46bd b63f 593d b56b 503e
00000150: 4adc f53d cd43 62bd e4a3 e3bc 443c bf3d
00000160: 89c3 4c3d d6a5 f93c ebb5 683d 2b0c 943d
00000170: 2fcb 1fbc 7d43 dfbc 8515 8b3c b02c d2bd
00000180: b953 173d 0c85 0d3d bcbb a73c 6fc1 23bd
00000190: 9e17 3c3c d6bf 89bd 03ba 6b3b 318d b53c
000001a0: 5c38 f53d 6936 c1bd ea34 f0bb b4ef 0c3c
000001b0: 55cd b7bd 25ae d43d a467 723d ce6a 9abc
000001c0: 9cae 8fbd 727e 373d 1cf6 a73c 0138 153d
000001d0: f1e3 b03d 2f18 de3c 23f4 14bd 883e 0e3d
000001e0: 9bdb 9f3d e293 da3d 6016 a8bd 63c6 863d
000001f0: bd4c 0bbd e6a4 75bd e45e 5d3b 2b72 2f3c
00000200: c10f 46bd dd62 573d 5965 793d 0047 f83c
00000210: 1b4f 163e 7652 b23c 555b 713d 27f5 1d3e
00000220: 4bf1 2f3d d4ea 5c3d d5a0 31be 6934 a63d
00000230: 54d4 eb3d aac9 233d 92f6 a23d 2a4b 20bd
00000240: 466c 3dbd 263b ad3d 9c19 623d 02e9 6d3c
00000250: eb7f f0bc 8d38 fa3a ee4a 01bd dd69 793d
00000260: 8316 96bc e1d6 3dbc d9cd 853c c0fe 58bc
00000270: 0a0a 8a3b 4301 d53d 316f a93c e0b5 fbbd
00000280: f3d1 45bd 3646 97bd de31 72bc a495 dc3d
00000290: cc5f 863c b29f 1b3d 0097 20bd d543 d03d
000002a0: e53e bcbd da07 2bbd 05ef 6f3d 42c8 d7bd
000002b0: 82dd ab3d 1b72 4ebd 5915 9cbc 917c 813d
000002c0: fdd6 5c3d 599a c13c 51f6 2fbc 90a2 873b
000002d0: 7006 cabd 3d92 913d b1f8 18bc e941 d13d
000002e0: 8086 ac3d 1832 763d 580d 943d 2ed4 73bd
000002f0: ba03 383c d746 b53d 15e1 0c3d 5ff6 753d
00000300: c567 8cbd 5135 323d 7f2e 183e b678 b43d
00000310: 630f febd 826d 833b e579 b4bc f154 d13c
00000320: c349 ff3d 2b55 5abd ca03 823d 0a3d 2b3d
00000330: 9b2e 9c3d 623c e03d ad83 fcba 2755 903d
00000340: 11eb 34bd 0fa5 d93d 8078 35bd 41df e3bb
00000350: eb72 1f3e 3bfe b3bd 68b8 c23d d83d 693d
00000360: f0d3 923d 62f2 f7bd 0151 fa3d 6d5c 2f3c
00000370: b4a8 72bc 6e19 3c3e 0eef cebc 40f3 a8bc
00000380: 9144 8abd 26bb 873b d6aa 743c 418c 653d
00000390: d581 74bb ca3f a93d 612b 69bd 42df 7fbd
000003a0: 08f7 5f3d 8b7c 523d 71ac a23d da52 ba3c
000003b0: 06e7 84bd 64d6 10bd fcf1 b1bd 8a18 0bbc
000003c0: f2c9 aebd fd8c babb 1548 64bd 8ef6 673c
000003d0: 1cf9 9bbd ad5c 23bd 2cb3 22be 7540 183e
000003e0: ad7f 8c3d 2226 0cbc f2d5 debd 3463 64bd
000003f0: 0676 63bd 5edf 57bd 72ec b5bd b1a2 a63d

actor_mlp_c.mlp.2.weight f4 [128, 256]
-0.15223196 -0.22105636 0.10716894 -0.23844093 -0.26209438 -0.13631453 -0.05562968 0.18763517
-0.0689948 0.030923476 -0.12467817 -0.11398591 0.15785559 -0.024452614 0.085885614 -0.11996419
0.010236069 -0.045417473 -0.14836963 0.079680696 -0.05473587 0.09482757 0.10263839 -0.06852311
-0.06100176 -0.00923525 0.024085274 -0.24718666 -0.097176604 0.19208449 -0.049285695 0.027233664
0.09954628 0.03255073 0.115142 -0.0074048433 0.041733228 0.09987862 -0.18362045 -0.097246654
-0.4025839 -0.3267093 0.08045316 -0.06494611 0.06470226 0.0012214137 0.021920782 0.027632864
-0.2109274 0.032230042 -0.1012776 -0.034298856 0.09531003 0.020622544 -0.01377592 -0.23439376
0.27838558 0.19152674 0.043125123 -0.06759263 -0.20519824 0.051738627 -0.12937824 0.107173756
0.015040701 0.10235845 -0.1401745 0.040077392 0.18955268 0.1549655 -0.006722709 -0.10089251
-0.08164132 -0.15850446 0.0060048983 0.048667114 -0.0131091215 -0.04397009 0.03583776 -0.11459109
0.028110903 -0.045957606 0.0010911945 0.10264849 0.15204619 -0.25359637 -0.24730104 0.063242525
-0.08281109 0.103234515 0.0032491046 -0.010675842 -0.31440836 -0.109968536 -0.060133573 -0.11437805
0.025385477 -0.1787175 0.16125752 0.116121836 -0.3759424 -0.086434655 0.070274904 0.09400658
0.019909596 -0.11645939 -0.08897532 0.1744495 0.25279707 -0.10915576 -0.047592036 0.28390148
-0.0725811 -0.028755426 0.008312269 0.07607637 0.04552033 -0.10439819 -0.13409053 -0.04709738
0.010986861 -0.03558257 -0.15791993 0.0015612801 -0.08207716 0.0076921987 -0.072050676 0.15354092
-0.06962364 0.05627781 0.24990787 0.0055630943 0.06698918 0.14107794 0.11627989 -0.0040012035
0.0855656 0.07818457 -0.16966 0.06310453 0.04881226 0.07026806 0.21734719 0.044269215
-0.005450131 -0.0736216 -0.022667632 -0.056643702 0.053769264 0.09790045 -0.002170363 -0.022979021
0.0047718845 0.13976395 0.044531457 -0.11576892 -0.12257432 -0.15987055 -0.30485618 0.017370412
-0.07484675 0.030328657 0.14099878 0.035586264 0.12168872 -0.12171629 -0.099339776 0.110520646
-0.046148013 -0.15001486 0.0055884193 -0.14646906 0.14018504 0.11610728 -0.15151285 -0.0025416545
-0.047718726 0.06054964 0.04319853 -0.20400268 0.18198265 0.20403777 -0.017597938 0.08416764
-0.036999997 0.19357894 0.13214226 0.12667546 0.113464884 0.04616404 0.0024492797 0.2843081
-0.14162919 0.08959899 0.10117432 -0.13292722 0.057166684 -0.050801784 0.12437959 -0.025904015
0.17554593 0.074251294 0.14471398 0.056411356 0.05184341 0.28923795 0.09098946 0.08627905
0.020942435 -0.08693789 -0.10021373 -0.083416216 0.13740976 0.07947128 0.23053709 -0.0046524806
0.09590961 -0.11742398 -0.029113198 0.11020843 0.0015834605 0.28403714 -0.032133006 0.18153273
-0.017111301 -0.2342225 0.043537106 -0.038098864 -0.14230603 0.06499891 0.074636966 -0.12858011
0.16177939 0.17121148 0.28308707 0.1002762 0.06657273 0.106044866 0.073525466 -0.044951264
-0.003884719 0.20423229 0.07280347 -0.13270107 0.123113506 -0.035964668 -0.062057205 0.26950935
0.040512662 0.21851893 0.17255951 -0.02435784 0.014319677 0.035414614 0.12852147 -0.075030245
00000000: b2e2 1bbe 995c 62be 647b db3d dc29 74be
00000010: 3c31 86be 0996 0bbe f3db 63bd 6f23 403e
00000020: 254d 8dbd 3b53 fd3c 4557 ffbd 7271 e9bd
00000030: e5a4 213e d950 c8bc cce4 af3d c9af f5bd
00000040: 2fb5 273c ac07 3abd 35ee 17be a22f a33d
00000050: b832 60bd f534 c23d 1434 d23d d855 8cbd
00000060: fbdc 79bd 724f 17bc 7b4e c53c 801e 7dbe
00000070: 8704 c7bd ccb1 443e ccdf 49bd 2219 df3c
00000080: ecde cb3d ea53 053d 92cf eb3d 54a4 f2bb
00000090: 76f0 2a3d 298d cc3d 0007 3cbe 4129 c7bd
000000a0: 7a1f cebe 7146 a7be a0c4 a43d 7702 85bd
000000b0: 9e82 843d d817 a03a 3693 b33c 515e e23c
000000c0: 5afd 57be a603 043d a16a cfbd f57c 0cbd
000000d0: e831 c33d 9cf0 a83c 65b4 61bc eb04 70be
000000e0: 8e88 8e3e 961f 443e f8a3 303d 016e 8abd
000000f0: 7d1f 52be e2eb 533d bb7b 04be ea7d db3d
00000100: 466d 763c 4fa1 d13d e789 0fbe 3128 243d
00000110: 191a 423e 47af 1e3e 2c4a dcbb bba0 cebd
00000120: 9033 a7bd fe4e 22be bdc4 c43b 2b57 473d
00000130: a4c7 56bc fb19 34bd 9dca 123d bcae eabd
00000140: d648 e63c 0b3e 3cbd 6906 8f3a 5f39 d23d
00000150: ffb1 1b3e 62d7 81be 7c3c 7dbe 4c85 813d
00000160: dc98 a9bd 9e6c d33d eeee 543b bae9 2ebc
00000170: 22fa a0be 2f37 e1bd 9f4e 76bd 0a3f eabd
00000180: 34f5 cf3c b801 37be b120 253e 49d1 ed3d
00000190: 867b c0be a704 b1bd 4aec 8f3d 8686 c03d
000001a0: 7319 a33c 4382 eebd b138 b6bd e4a2 323e
000001b0: 9e6e 813e 0e8d dfbd deef 42bd 895b 913e
000001c0: 66a5 94bd 8090 ebbc 2f30 083c eecd 9b3d
000001d0: 8773 3a3d b8ce d5bd 074f 09be 2fe9 40bd
000001e0: 3c02 343c 07bf 11bd c3b5 21be dea3 cc3a
000001f0: 1218 a8bd d70e fc3b 4e8f 93bd d539 1d3e
00000200: d796 8ebd 9083 663d d9e7 7f3e 9e4a b63b
00000210: a031 893d bc76 103e 2724 ee3d 871c 83bb
00000220: 043d af3d 3b1f a03d 5abb 2dbe f33c 813d
00000230: 5def 473d b3e8 8f3d 4390 5e3e a353 353d
00000240: 0397 b2bb ecc6 96bd 78b1 b9bc 3a03 68bd
00000250: 293d 5c3d 0880 c83d a63c 0ebb 803e bcbc
00000260: 785d 9c3b 481e 0f3e 9e66 363d 4118 edbd
00000270: 3f08 fbbd 1bb5 23be 1c16 9cbe 654c 8e3c
00000280: 4149 99bd ce73 f83c fc61 103e e7c2 113d
00000290: f037 f93d 6446 f9bd a772 cbbd a658 e23d
000002a0: b305 3dbd 7f9d 19be 0f1f b73b fcfb 15be
000002b0: ab8c 0f3e a7c9 ed3d 2f26 1bbe e391 26bb
000002c0: b674 43bd e602 783d f1f0 303d 14e6 50be
000002d0: a959 3a3e 47ef 503e 8d29 90bc 1560 ac3d
000002e0: 4f8d 17bd 8f39 463e 4d50 073e 36b7 013e
000002f0: 4760 e83d 8116 3d3d 1884 203b d590 913e
00000300: 3e07 11be ad7f b73d 7b34 cf3d 131e 08be
00000310: 9d27 6a3d 8815 50bd baba fe3d a834 d4bc
00000320: 50c2 333e 1011 983d e72f 143e 980f 673d
00000330: c159 543d ff16 943e af58 ba3d 12b3 b03d
00000340: 788f ab3c 7e0c b2bd db3c cdbd 1fd6 aabd
00000350: 25b5 0c3e d7c1 a23d ea11 6c3e d673 98bb
00000360: 426c c43d fc7b f0bd cd7e eebc f5b4 e13d
00000370: 1e8c cf3a 516d 913e e69d 03bd b7e3 393e
00000380: 002d 8cbc 06d8 6fbe f753 323d 8e0d 1cbd
00000390: acb8 11be 261e 853d 44db 983d 81aa 03be
000003a0: 7fa9 253e 1052 2f3e caf0 903e 9c5d cd3d
000003b0: 4957 883d 0d2e d93d 8594 963d d11e 38bd
000003c0: c596 7ebb 4522 513e fc19 953d cae2 07be
000003d0: ef22 fc3d b04f 13bd b22f 7ebd 21fd 893e
000003e0: 9bf0 253d 6dc3 5f3e 71b3 303e 188a c7bc
000003f0: 149d 6a3c ea0e 113d 229b 033e 75a9 99bd

actor_mlp_c.mlp.2.bias f4 [128]
0.14880554 0.06939635 -0.02628916 -0.0335842 -0.02316529 -0.0027499364 -0.017107846 -0.04857377
0.003140012 0.010873424 0.07468132 -0.06740443 0.041211758 0.052081466 0.14833806 -0.009993787
-0.10243895 -0.13337636 0.023524862 -0.10862323 -0.00941617 -0.046067182 0.10665657 0.065173835
-0.0784438 -0.05451405 0.05550149 -0.03624263 -0.030875724 -0.020096246 0.027340248 -0.1080244
0.01606411 0.060623556 -0.07411673 -0.058354743 0.092631154 -0.05954061 -0.012687195 -0.06851507
0.026613383 -0.067285076 -0.039613683 0.08407822 -0.05191704 -0.03440515 0.118439846 -0.032716908
-0.11362949 -0.055616576 0.009827745 0.019373955 -0.022140175 -0.013204561 0.04312517 -0.04017937
0.17544068 -0.017239768 0.014467122 0.053766467 0.0073903627 0.036797818 -0.07163842 0.025121134
0.03919466 0.025238972 0.031472567 -0.008835342 0.0055628233 -0.018187877 -0.08392863 0.0047347876
-0.10701953 -0.026545968 -0.0019118945 0.06167018 -0.038759537 -0.114348486 -0.04126986 -0.057666034
-0.107099876 0.042497754 -0.017467946 -0.02670534 -0.008083701 -0.031415604 -0.037831254 -0.065171964
0.046448734 -0.024591671 0.016048074 -0.011219036 -0.05007142 -0.049383234 0.15994765 0.004038335
-0.048850656 0.0059054554 -0.008560884 -0.028101783 -0.028543571 -0.019164283 0.11470187 -0.045512497
-0.045059934 -0.0056298706 0.018539712 -0.014436148 -0.13609195 0.06805333 0.018130578 -0.088356964
0.035921313 -0.09335299 -0.035849877 -0.09137084 0.10041616 -0.09261193 -0.053618003 0.01080614
-0.1643903 -0.07694089 -0.034844425 0.11836299 0.09173898 -0.026766496 0.045581304 0.027679792
00000000: 7b60 183e ac1f 8e3d 5d5c d7bc 968f 09bd
00000010: 22c5 bdbc 4738 34bb c125 8cbc 4af5 46bd
00000020: a9c8 4d3b 7226 323c 85f2 983d 550b 8abd
00000030: a9cd 283d 6053 553d efe5 173e fbbc 23bc
00000040: 83cb d1bd d093 08be 36b7 c03c db75 debd
00000050: 4846 1abc f1b0 3cbd c36e da3d dc79 853d
00000060: 25a7 a0bd 204a 5fbd 8855 633d 2773 14bd
00000070: 16ef fcbc e2a0 a4bc a8f8 df3c e63b ddbd
00000080: e198 833c 6850 783d 83ca 97bd 6205 6fbd
00000090: 67b5 bd3d dbe0 73bd f4dd 4fbc a151 8cbd
000000a0: 4f04 da3c c2cc 89bd f541 22bd 3431 ac3d
000000b0: f6a6 54bd 6aec 0cbd 9790 f23d 2a02 06bd
000000c0: 94b6 e8bd 35ce 63bd 8d04 213c 21b6 9e3c
000000d0: 505f b5bc f157 58bc 05a4 303d 2093 24bd
000000e0: b9a6 333e 6a3a 8dbc 8207 6d3c 3a3a 5c3d
000000f0: db2a f23b 4fb9 163d 2ab7 92bd d6ca cd3c
00000100: 948a 203d f6c1 ce3c 61e9 003d 1cc2 10bc
00000110: 5848 b63b befe 94bc c6e2 abbd 4726 9b3b
00000120: 0e2d dbbd ee76 d9bc 8998 faba df99 7c3d
00000130: 52c2 1ebd 8a2f eabd 960a 29bd 3833 6cbd
00000140: 2e57 dbbd 2012 2e3d f018 8fbc 28c5 dabc
00000150: 8071 04bc a6ad 00bd f2f4 1abd e178 85bd
00000160: 0741 3e3d 7974 c9bc 4077 833c 0cd0 37bc
00000170: b017 4dbd 1346 4abd 51c9 233e 0254 843b
00000180: a017 48bd 8d82 c13b f342 0cbc b635 e6bc
00000190: 35d4 e9bc 6afe 9cbc d0e8 ea3d 506b 3abd
000001a0: c490 38bd c77a b8bb 98e0 973c 9885 6cbc
000001b0: b05b 0bbe 8b5f 8b3d 9486 943c 7ff4 b4bd
000001c0: 3a22 133d da2f bfbd 52d7 12bd a320 bbbd
000001d0: fda6 cd3d 53ab bdbd 8d9e 5bbd 3c0c 313c
000001e0: ee55 28be 2f93 9dbd 07b9 0ebd 4c68 f23d
000001f0: a5e1 bb3d 6945 dbbc 76b3 3a3d bbc0 e23c
