assets/models/track.pth (torch, 313150 bytes, 25 tensors)

sigma f4 [6]
0	0xc06f08ad	-3.7349045
1	0xc065ab7a	-3.588591
2	0xc010fd86	-2.2654738
3	0xc01ad7b2	-2.419415
4	0xc010a43e	-2.2600245
5	0xbf687307	-0.9080052

actor_mlp.mlp.0.weight f4 [256, 18]
0	0xbbc601a4	-0.006042676
1	0xbd95d637	-0.07316249
2	0x3d29a64a	0.04141835
3	0x3dc83341	0.09775401
4	0x3c838b07	0.016057504
5	0x3937c616	0.00017526033
6	0xbdaa3b68	-0.08312112
7	0x3bdaeb34	0.0066808704
8	0x3d94c4c3	0.07264092
9	0xbd687c78	-0.056759328
10	0xbc243e02	-0.010024549
11	0xbd5c1793	-0.05373342
12	0xbe0d3466	-0.1378952
13	0xbdd30427	-0.10303526
14	0x3eb3fde8	0.35154653
15	0x3d413200	0.047166824
16	0x3de915de	0.11381124
17	0xbe32d01a	-0.17462197
18	0x3d9a32a6	0.07529192
19	0x3ddd7be5	0.10814647
20	0xbda25748	-0.07926804
21	0x3be59ef7	0.0070074755
22	0xbde6aec3	-0.11263802
23	0x3e82e567	0.25565645
24	0x3d9f108e	0.077668294
25	0xbc9bf8e9	-0.019039588
26	0x3e085d61	0.13316871
27	0xbe548059	-0.20752086
28	0xbc7dcf16	-0.015491268
29	0x3d21eecb	0.03953437
30	0xbc600d2d	-0.013675016
31	0x3e4def5a	0.20110837
32	0x3d8733e9	0.06601698
33	0x3d82d2e9	0.06387884
34	0xbe6fd2b1	-0.23420216
35	0x3cba8662	0.022769157
36	0xbd5a8893	-0.053352904
37	0xbd361aff	-0.04445934
38	0xbd92e20c	-0.07172021
39	0x3d9c7899	0.0764019
40	0xbe3d58ee	-0.18490955
41	0x3e20e57a	0.15712538
42	0x3ce15b7d	0.027509445
43	0x3dacc580	0.08436108
44	0x3c456fca	0.012050578
45	0x3e21a753	0.15786485
46	0x3e10c979	0.14139356
47	0x3df1a2a9	0.11798603
48	0xbe9a00f8	-0.30078864
49	0xbd6aa9d0	-0.057290852
50	0xbbd2ef47	-0.0064372155
51	0xbdca1e35	-0.09869043
52	0xbd221ddf	-0.03957927
53	0x3c8d7839	0.01726924
54	0x3dffa66c	0.12482914
55	0x3d2a2267	0.041536715
56	0xbdbd3309	-0.0923825
57	0x3d95dad3	0.07317128
58	0x3df8b26e	0.12143408
59	0x3dccc4a5	0.099984445
60	0xbe157f32	-0.14599302
61	0xbd11da74	-0.035608724
62	0xbd0603f7	-0.032718625
63	0xbde45486	-0.11148934
64	0xbbc56fcb	-0.0060252897
65	0xbd618337	-0.055056777
66	0x3dfa2eb5	0.1221594
67	0x3dd82bfe	0.10555266
68	0x3c1f9543	0.009740177
69	0x3e8185cb	0.25297388
70	0x3e5644d1	0.20924689
71	0xbbe22ab0	-0.0069020614
72	0xbb2efa1f	-0.0026699377
73	0x3db7f1a5	0.08981637
74	0x3e78a03e	0.24279878
75	0xbe91bd67	-0.28464815
76	0xbe85ed0c	-0.26157415
77	0x3d7d6135	0.061860282
78	0xbb3e7ab0	-0.0029064827
79	0xbe260541	-0.16212942
80	0xbdd80259	-0.10547323
81	0xbb4b9f7b	-0.00310704
82	0xbe0e16dd	-0.13875909
83	0x3d72008c	0.059082553
84	0xbce249e2	-0.02762312
85	0x3a9c9206	0.0011945374
86	0xbc3747c4	-0.011186544
87	0xbe0b0cc6	-0.13579091
88	0xbc85934f	-0.016305594
89	0x3db23170	0.08700836
90	0xbd340052	-0.043945618
91	0xbe17d8c6	-0.14828786
92	0x3dacdfd8	0.08441132
93	0xbc8cc72c	-0.017184816
94	0xbb8fca69	-0.004388143
95	0xbdfa4571	-0.12220276
96	0xbd0b8437	-0.034061637
97	0x3bee34b9	0.0072694686
98	0x3d418370	0.04724449
99	0x3e0f1165	0.13971479
100	0xbb7f7f8b	-0.0038985934
101	0xbe337046	-0.17523298
102	0xbe1959cb	-0.1497566
103	0x3da79baf	0.08183991
104	0x3e1ae694	0.15127021
105	0x3e06fc21	0.13182117
106	0x3d61bc92	0.055111475
107	0xbdaf8e1f	-0.08572029
108	0x3e207e94	0.15673286
109	0xbde828ae	-0.11335884
110	0xbdade6c7	-0.08491283
111	0x3d074925	0.03302874
112	0xbd37a077	-0.044830766
113	0xbe1eb35e	-0.1549811
114	0x3b7c1cdf	0.0038469357
115	0x3ded7e88	0.115963995
116	0x3dc75e97	0.097348385
117	0xbe1f8616	-0.15578493
118	0xbd61d102	-0.055130966
119	0x3e39b555	0.18135579
120	0x3d9e3fb8	0.07726997
121	0xbcb27add	-0.021787101
122	0xbc9b5705	-0.018962393
123	0x3dfe2e69	0.12411196
124	0x3e4f41ff	0.2024002
125	0xbd4cc9ae	-0.049997024
126	0x3d2cf075	0.042221505
127	0x3ddc153d	0.107462384
128	0xbe11ed58	-0.14250696
129	0x3dd2c2a2	0.102910295
130	0xbe4eda31	-0.20200421
131	0x3d8fd61c	0.0702326
132	0x3e254784	0.16140562
133	0x3e189d98	0.14903867
134	0x3dff4669	0.124646015
135	0x3c986518	0.018602893
136	0xbceb883c	-0.028751485
137	0xbd98ba40	-0.07457399
138	0x3d3b359c	0.045705423
139	0xbdd9bfde	-0.10632299
140	0x3e0588c5	0.13040455
141	0x3cebf35b	0.028802564
142	0xbe04c9cc	-0.12967604
143	0x3c7b4ab3	0.015337634
144	0xbd5771d3	-0.052598786
145	0x3da0826c	0.07837376
146	0xbe003d44	-0.12523371
147	0x3e3c2dfa	0.18376914
148	0xbd6c6223	-0.057710778
149	0x3e2556df	0.1614642
150	0x3d06d8a5	0.032921452
151	0x3ce79bd6	0.02827255
152	0xbdd21cde	-0.10259412
153	0x3d7dbbaa	0.06194655
154	0xbdea2833	-0.11433449
155	0x3c385709	0.01125122
156	0x3e7db606	0.24776468
157	0x3c9839a2	0.018582169
158	0xbcc47725	-0.023982594
159	0xbdc158ce	-0.09440766
160	0x3cabdc31	0.020979019
161	0x3e1c1f47	0.15246306
162	0xbe0540f5	-0.1301306
163	0xbd85e53e	-0.06537865
164	0x3e37e187	0.17957126
165	0x3d4af368	0.049548537
166	0x3cab13a9	0.020883398
167	0xbded8195	-0.115969814
168	0x3bb7f20e	0.005613572
169	0x3c024040	0.007949889
170	0xbdd592c2	-0.104283825
171	0x3d666138	0.05624506
172	0xbe284342	-0.16431907
173	0x3d878d34	0.06618729
174	0xbe86a070	-0.2629428
175	0x3e06d14e	0.13165781
176	0xbe3a2566	-0.18178329
177	0xbddfa10e	-0.109193906
178	0xbe1bb50a	-0.1520578
179	0xbd0dd61e	-0.034628026
180	0xbdd10920	-0.102068186
181	0x3e1eb91f	0.15500306
182	0xbe95b621	-0.29240516
183	0x3d84aece	0.06478654
184	0xbe0c6418	-0.13710058
185	0x3dca4697	0.09876745
186	0xbe1977a3	-0.14987044
187	0x3d4dbf03	0.05023099
188	0xbdc54593	-0.09632411
189	0x3cf4302f	0.029808132
190	0xbd469509	-0.048481975
191	0x3b200f08	0.0024423022
192	0x3e88635b	0.26638302
193	0xbe53f411	-0.20698573
194	0x3d22d6ea	0.03975574
195	0x3d704b14	0.05866535
196	0x3e37b9d3	0.1794198
197	0x3e85ff78	0.2617147
198	0x3ca31373	0.019906735
199	0xbcf7039a	-0.030153085
200	0xbbbbd5af	-0.00573226
201	0x3dc5fd60	0.09667468
202	0xbd960edf	-0.07327055
203	0x3d1d9964	0.038476363
204	0x3d468cf3	0.048474263
205	0xbc88a7e0	-0.016681612
206	0x3d69c827	0.057075646
207	0xbd946c3f	-0.07247209
208	0x3d5b151c	0.05348693
209	0xbd1de7f2	-0.03855128
210	0xbdd9b13d	-0.10629509
211	0xbe922ec2	-0.28551298
212	0x3da33444	0.07968953
213	0xbd51347a	-0.051075436
214	0xbe92d9a7	-0.2868168
215	0x3e607a0f	0.21921562
216	0x3e86e758	0.26348376
217	0x3ad2ba17	0.0016077188
218	0xbcc0ca6c	-0.023534022
219	0x3d97fdb2	0.074214354
220	0xbce3f8c0	-0.027828574
221	0x3dd05c0a	0.10173805
222	0xbe19ea7c	-0.15030855
223	0x3df8636c	0.12128338
224	0x3cff58aa	0.031170208
225	0x3d99184b	0.07475337
226	0x3d84d6ee	0.06486307
227	0x3e4cf0ec	0.2001378
228	0xbeb6898f	-0.35651824
229	0xbe6e062b	-0.2324454
230	0x3d9f0b39	0.077658124
231	0xbd353aef	-0.044245657
232	0x3d08f023	0.033432137
233	0xbe514657	-0.20436989
234	0x3d94aa54	0.0725905
235	0x3dcb3995	0.09923092
236	0x3db16808	0.086624205
237	0x3e3269f0	0.17423224
238	0x3dbbd07a	0.09170623
239	0xbbfaf6e4	-0.007658826
240	0x3cb06a66	0.02153511
241	0x3da8825b	0.08227988
242	0xbd4b8d79	-0.049695466
243	0x3e14a443	0.14515786
244	0x3baefa68	0.0053399093
245	0xbe17b75e	-0.14816043
246	0xbeca68af	-0.39532992
247	0xbd5f886e	-0.05457347
248	0x3e2d7b13	0.1694148
249	0xbe43ba1a	-0.19113961
250	0xbd93d2d8	-0.0721795
251	0xbd6e9945	-0.058251638
252	0x3db97529	0.0905555
253	0xbd1f9dd7	-0.038968887
254	0x3d6f0e0b	0.058363
255	0x3e1c3e9f	0.15258263

actor_mlp.mlp.0.bias f4 [256]
0	0xbdfa9fa8	-0.12237483
1	0xbd4a3c27	-0.049373772
2	0xbe72eff4	-0.23724347
3	0x3e35cab8	0.17753112
4	0x3da90a8e	0.08253966
5	0x3d96ef0e	0.07369815
6	0xbc036fd9	-0.008022272
7	0xbeb849c6	-0.35993785
8	0xbef14258	-0.4712093
9	0xbcc941ad	-0.02456745
10	0x3da8303c	0.08212325
11	0xbea2442a	-0.3169263
12	0xbe91425a	-0.28370935
13	0xbe68af20	-0.22723055
14	0x3e757cc8	0.23973382
15	0xbcb563fb	-0.022142401
16	0x3eb84406	0.35989398
17	0xbe912aa5	-0.28352848
18	0x3e88c070	0.26709318
19	0x3e01019d	0.12598272
20	0xbd1c5607	-0.03816798
21	0xbe2d2500	-0.16908646
22	0xbeba083c	-0.36334407
23	0xbd361303	-0.044451725
24	0x3d998bba	0.07497354
25	0x3ddc2a14	0.10750213
26	0x3e209b45	0.1568423
27	0x3d0f68e9	0.03501216
28	0x3d33b402	0.04387284
29	0x3f20e0f9	0.6284328
30	0x3ce85b4e	0.02836385
31	0xbcd30724	-0.02576024
32	0xbe0dbf10	-0.13842416
33	0xbe4518b7	-0.19247709
34	0xbe5bc5ed	-0.21462221
35	0xbe453161	-0.19257118
36	0xbec53879	-0.38519648
37	0xbe1e4c6b	-0.15458839
38	0xbec5bcd6	-0.38620633
39	0xbc9c8b39	-0.019109355
40	0xbf003f0c	-0.500962
41	0x3e30292a	0.17203203
42	0xbebd462a	-0.36967593
43	0x3e13e2e2	0.14442018
44	0x3d9ad157	0.0755946
45	0x3e1a0a16	0.1504291
46	0x3e888900	0.26667023
47	0xbc89a0aa	-0.016800243
48	0x3e80cd96	0.2515685
49	0x3eb1d350	0.3473153
50	0xbedf905e	-0.4366483
51	0xbe876b0c	-0.26448858
52	0xbdcded95	-0.10055081
53	0xbe52cf16	-0.2058681
54	0xbe2b256e	-0.16713497
55	0xbe87b217	-0.2650306
56	0xbed2a849	-0.41144016
57	0xbed57167	-0.41688082
58	0x3ea18b6c	0.31551683
59	0x3e8c18fe	0.27362818
60	0xbe5e48f2	-0.21707514
61	0x3e00a4dc	0.12562889
62	0xbd11ac8f	-0.035564955
63	0xbefe0841	-0.49615672
64	0xbe2043f1	-0.15650918
65	0xbebfeb73	-0.3748432
66	0x3e641e09	0.22277083
67	0xbde04c5b	-0.10952064
68	0x3d10aca8	0.035320908
69	0x3e85240b	0.2600406
70	0x3d78a66c	0.060705587
71	0x3e72d1c4	0.23712832
72	0x3eb6834a	0.3564704
73	0xbef0712b	-0.4696134
74	0x3f19425e	0.59866893
75	0xbce3d793	-0.027812755
76	0xbdd89c35	-0.10576669
77	0xbdc19991	-0.094531186
78	0x3ea3fe83	0.32030115
79	0x3e192b88	0.14958012
80	0xbea2c324	-0.31789505
81	0xbe7eb864	-0.24875027
82	0xbdb7bfcf	-0.089721315
83	0xbe6aa8f4	-0.22916013
84	0x3cb92b03	0.022603517
85	0x3f09bc54	0.5380299
86	0x3dfbb5e4	0.12290552
87	0xbef18ec5	-0.47179237
88	0xbea64184	-0.3247186
89	0xbde9198b	-0.11381825
90	0x3cd8a945	0.026447902
91	0x3ef7efbe	0.48425096
92	0x3e731a37	0.23740469
93	0xbe1859eb	-0.14878051
94	0xbe6c0ffb	-0.23052971
95	0xbea015a6	-0.31266516
96	0xbec0550a	-0.3756488
97	0xbc933c00	-0.017972946
98	0xbe21caec	-0.15800065
99	0xbe152e48	-0.14568436
100	0xbd991c05	-0.074760474
101	0xbe5e793f	-0.21725939
102	0xbe08c91d	-0.13357969
103	0x3e074a97	0.13212048
104	0x3e272f02	0.16326526
105	0x3dec7b08	0.11546904
106	0xbd18a0a3	-0.03726257
107	0xbe886e32	-0.26646572
108	0xbe3838dd	-0.17990442
109	0x3ead22c4	0.33815587
110	0xbde30ea9	-0.110867806
111	0xbe1ff239	-0.15619744
112	0xbe2be929	-0.16788162
113	0x3e0018f2	0.12509516
114	0x3eac4ba9	0.33651474
115	0x3e2bf6f4	0.16793424
116	0x3e82f21c	0.2557534
117	0x3deaa97b	0.11458107
118	0x3ddaad61	0.10677601
119	0xbe7d82b4	-0.2475689
120	0x3d9db96c	0.07701382
121	0xbeaa942c	-0.3331617
122	0x3d765108	0.06013587
123	0x3e0b8ffe	0.13629147
124	0x3e99518b	0.29945025
125	0x3e7ce2e6	0.2469593
126	0xbe0152d7	-0.12629257
127	0xbd93d3ef	-0.072181575
128	0xbeaf9b76	-0.34298295
129	0x3e628a0e	0.22122976
130	0xbd2ed756	-0.04268583
131	0x3ec542a4	0.38527405
132	0x3e84ac71	0.25912812
133	0x3ed784f4	0.42093623
134	0x3e8b55bd	0.2721385
135	0x3c8c5c9f	0.017134009
136	0xbea8bc48	-0.32956147
137	0x3e4a64ad	0.19764967
138	0xbe8de0b5	-0.277105
139	0x3ea87c90	0.32907534
140	0xbcbbad98	-0.022909924
141	0x3db122b1	0.08649195
142	0xbdffa227	-0.124821
143	0x3e95dd52	0.29270416
144	0x3e0109e0	0.12601423
145	0x3f0ba495	0.5454801
146	0xbe8e940a	-0.2784732
147	0xbd86ae92	-0.065762654
148	0x3e6b19e0	0.2295909
149	0x3e91e320	0.28493595
150	0xbe956388	-0.291775
151	0xbe9c5d18	-0.30539775
152	0x3df3fd23	0.11913516
153	0xbdd8cec0	-0.105863094
154	0x3e11447c	0.14186281
155	0x3e5b0ad4	0.2139085
156	0xbeae242d	-0.34011975
157	0x3dade437	0.08490794
158	0xbe33ea55	-0.1756986
159	0x3dab8812	0.08375563
160	0x3f173635	0.5906709
161	0xbe38fabd	-0.18064399
162	0xbda39560	-0.079874754
163	0xbe13f2b5	-0.14448054
164	0x3edfcd5c	0.43711364
165	0xbec0de2c	-0.37669504
166	0x3e5e0b27	0.21683942
167	0x3dce6603	0.10078051
168	0xbe566ad5	-0.2093919
169	0x3e88f69c	0.26750648
170	0xbe416680	-0.18886757
171	0xbdbd4e37	-0.09243434
172	0xbe9b1357	-0.30288193
173	0x3e8f9a49	0.28047398
174	0x3cd5d08e	0.026100423
175	0xbcd1c4f6	-0.025606614
176	0x3f016935	0.5055116
177	0xbdbf45ff	-0.093395226
178	0xbb8f8ddd	-0.004380925
179	0x3c946f9d	0.018119628
180	0x3e2fbfec	0.17163056
181	0xbedb5127	-0.42835352
182	0xbd106fb0	-0.035262764
183	0xbdc70d4a	-0.097193316
184	0x3d80e70c	0.06294069
185	0xbd8f2bd1	-0.06990779
186	0xbe1157d3	-0.14193659
187	0x3e6df7e6	0.23239097
188	0xbd7531b7	-0.059861865
189	0xbdecb070	-0.1155709
190	0x3da3d9bb	0.08000513
191	0x3e096f47	0.13421355
192	0xbee4fc05	-0.44723526
193	0x3defb0e9	0.11703665
194	0x3edd5c4b	0.43234476
195	0x3dd4a9f5	0.10383979
196	0xbeecc38e	-0.46242946
197	0xbe3e4b82	-0.18583491
198	0xbdc61d51	-0.096735604
199	0xbe87715a	-0.26453668
200	0x3e6cd4a2	0.23127988
201	0xbe7b1ae1	-0.24521972
202	0x3a1d36dc	0.00059972494
203	0xbeb13269	-0.34608772
204	0xbca4b911	-0.020107778
205	0x3e0236e4	0.12716252
206	0x3e9c7b97	0.30563042
207	0xbe2750d2	-0.16339424
208	0x3d80c961	0.0628841
209	0x3e3adbc9	0.18247904
210	0xbe3e44c8	-0.18580925
211	0x3d353ecb	0.044249337
212	0x3d9ee660	0.07758784
213	0xbe8d0179	-0.27540186
214	0x3e6e25ae	0.23256561
215	0xbcc83909	-0.024441259
216	0x3b05c5ec	0.002041216
217	0x3d57a27c	0.05264519
218	0xbdead9ed	-0.11467347
219	0xbc34026c	-0.010986906
220	0x3d4dc8b1	0.050240222
221	0x3da9791b	0.08275052
222	0xbd76bea1	-0.06024039
223	0x3e8de091	0.27710393
224	0x3d861ee9	0.065488644
225	0xbe90cbf9	-0.2828062
226	0xbee33802	-0.44378668
227	0x3cb10f28	0.021613672
228	0x3ead303d	0.33825865
229	0xbe93e8f5	-0.2888867
230	0x3e90dddf	0.28294274
231	0xbe2b2738	-0.1671418
232	0xbdf3006c	-0.11865315
233	0xbe38bf2a	-0.18041673
234	0x3e87dc43	0.26535234
235	0x3eb58738	0.35454726
236	0xbf20d635	-0.62826854
237	0xbe9c0124	-0.3046962
238	0xbedbb0af	-0.42908236
239	0x3e5f2562	0.21791604
240	0x3da3e3c9	0.08002431
241	0x3e6c5cbb	0.23082249
242	0xbc8ba7bc	-0.017047755
243	0xbd62a019	-0.055328462
244	0xbdbe6b3d	-0.09297798
245	0xbdd050ea	-0.10171683
246	0x3d4cf48d	0.05003791
247	0x3cf565a8	0.0299557
248	0xbd8fe1e2	-0.070255056
249	0xbe62f21e	-0.22162673
250	0xbe4bac00	-0.19889832
251	0x3b3dd373	0.0028965145
252	0xbe82c34a	-0.2553962
253	0x3eb8107e	0.35950083
254	0xbeb6c60d	-0.35697976
255	0xbeddbd79	-0.4330862

actor_mlp.mlp.2.weight f4 [128, 256]
0	0x3dc1817d	0.09448526
1	0xbabbcbea	-0.0014327739
2	0xbe61e979	-0.22061719
3	0xbd960604	-0.07325366
4	0xbe4541f8	-0.19263446
5	0x3d4ff215	0.050767977
6	0xbe29a0b5	-0.16565211
7	0x3ccc54d9	0.024942802
8	0x3d1a7cbd	0.037716616
9	0xbe17cd22	-0.14824346
10	0x3ddaeb04	0.10689357
11	0xbdc4584f	-0.09587156
12	0x3a7a0716	0.0009537799
13	0xbc72d492	-0.0148211885
14	0xbd293814	-0.041313246
15	0xbbe8f342	-0.0071090767
16	0xbdafcf10	-0.08584416
17	0x3d4af762	0.04955233
18	0xbe0995da	-0.1343607
19	0xbdbd9466	-0.092568204
20	0xbd3debec	-0.04636757
21	0xbe53ee02	-0.20696262
22	0x3da3554f	0.07975256
23	0x3c986fa3	0.01860792
24	0xbdf53986	-0.11973862
25	0xbd28501b	-0.04109202
26	0x3cf170e0	0.029472768
27	0xbab1bd9b	-0.0013560535
28	0xbde8e754	-0.11372247
29	0xbe4bd37a	-0.1990489
30	0xbe538ff3	-0.20660381
31	0x3dff60b1	0.12469614
32	0xbe652044	-0.2237559
33	0x3d37d1c5	0.044877786
34	0x3d4a6d02	0.049420364
35	0xbe0dec89	-0.13859762
36	0xbd9c6f19	-0.07638378
37	0xbd8df19b	-0.06930848
38	0xbe950bf1	-0.29110673
39	0x3db27d67	0.08715325
40	0x3d90e249	0.070744105
41	0xbd217ae0	-0.039423823
42	0x3d8cd660	0.06876826
43	0xbe737e8e	-0.23778746
44	0xbd7ce39c	-0.061740503
45	0xbe4fedd8	-0.20305574
46	0x3dd246a2	0.102673784
47	0xbe352f6d	-0.17693873
48	0xbe098ad4	-0.13431865
49	0x3dbbaf54	0.091643006
50	0x3e5eaa80	0.21744728
51	0x3c8ddb2c	0.017316423
52	0xbe4482d5	-0.19190533
53	0x3d36d238	0.044634074
54	0x3d509880	0.050926685
55	0x3d7eddd5	0.062223274
56	0xbd361e27	-0.04446235
57	0x3ca2b287	0.01986052
58	0x3b9212f1	0.0044578244
59	0x3c7d48ac	0.015459221
60	0x3c84702b	0.016166767
61	0xbbf3b20a	-0.0074369954
62	0xbd4092e1	-0.047015075
63	0x3c672075	0.014106859
64	0xbe077348	-0.1322757
65	0x3e2c5a81	0.168314
66	0xbdcde71a	-0.10053845
67	0x3ddf6a8d	0.10908995
68	0xbc90ddda	-0.017683912
69	0x3d65d544	0.05611159
70	0x3e54475f	0.20730351
71	0xbe1eab3e	-0.15495011
72	0xbe7ca613	-0.24672727
73	0xbd812aa0	-0.06306958
74	0x3d9affd1	0.07568324
75	0x3d7a6c4b	0.061138432
76	0x3d260709	0.040534053
77	0xbbb82ccd	-0.005620575
78	0xbea641b3	-0.32472
79	0xbdce264d	-0.10065899
80	0x3d6a9958	0.057275146
81	0xbdc4711d	-0.09591887
82	0xbdffc67c	-0.1248903
83	0xbe4c62d4	-0.19959575
84	0xbe3a03dd	-0.18165536
85	0xbd392204	-0.045198455
86	0x3db8ca38	0.09022945
87	0xbdb4f756	-0.08836238
88	0x3c3a1154	0.01135667
89	0x3dc8b8c3	0.098008655
90	0x3d10d31d	0.035357583
91	0xbdb14666	-0.086560056
92	0x3bdfb62d	0.006827137
93	0xbdc0fff3	-0.094238184
94	0x3e397b8a	0.18113533
95	0xbe391047	-0.18072616
96	0x3e8974bd	0.26846877
97	0xbdb9f9f0	-0.09080875
98	0xbd04829f	-0.032351132
99	0xbd188c56	-0.03724321
100	0xbe6bb2d4	-0.23017436
101	0x3e0d0f7d	0.1377544
102	0x3dccd041	0.10000659
103	0xbe124512	-0.1428416
104	0x3c563fdc	0.013076749
105	0x3cb8327b	0.022485008
106	0xbc859b57	-0.016309423
107	0x3e0a611d	0.13513608
108	0xbdf440f2	-0.1192645
109	0x3db05765	0.08610419
110	0x3b8c13ce	0.004274822
111	0xbe5b4eec	-0.21416825
112	0xbd9991b0	-0.07498491
113	0xbead4a3b	-0.33845696
114	0xbd5b70b6	-0.053574286
115	0xbe58fd78	-0.2119044
116	0xbe8722ab	-0.26393637
117	0xbd4298bd	-0.047508944
118	0x3e2f73ba	0.1713399
119	0xbe62c329	-0.2214476
120	0xbe39d9c4	-0.18149477
121	0x3c7d3ccf	0.015456392
122	0xbe981182	-0.29700857
123	0xbe0d36e0	-0.13790464
124	0xbdb2cea0	-0.08730817
125	0xbe812e23	-0.25230512
126	0x3e3d3d66	0.18480453
127	0xbe005780	-0.12533379
128	0x3da079c1	0.07835723
129	0xbbc1eba5	-0.0059179836
130	0x3d85b208	0.065280974
131	0xbd454ffe	-0.04817199
132	0x3e8637fa	0.26214582
133	0xbd8f283b	-0.06990095
134	0xbd199aa7	-0.037501004
135	0x3dd855a7	0.10563212
136	0xbd9ecf16	-0.07754342
137	0x3c59f5b0	0.013303205
138	0x3daaf8d0	0.083482385
139	0xbc69374b	-0.014234374
140	0xbe93ad75	-0.28843275
141	0x3c7020ab	0.014656226
142	0x3e2c6dfa	0.16838828
143	0xbdd9089a	-0.10597344
144	0xbe173f01	-0.14770128
145	0xbde16a2d	-0.110065795
146	0x3e86ba82	0.2631417
147	0xbd6bb31b	-0.057543855
148	0xbd8a3d66	-0.06749992
149	0x3e469980	0.19394493
150	0xbcb0de52	-0.021590386
151	0xbca71765	-0.020396898
152	0xbd0e921e	-0.034807317
153	0x3e80a296	0.25124043
154	0xbec20ea2	-0.3790179
155	0xbe71a8a2	-0.23599485
156	0x3e5d63e5	0.21620138
157	0xbdac2fe5	-0.08407573
158	0xbd2d5ba4	-0.042323723
159	0xbdc68a67	-0.09694367
160	0xbe29736b	-0.16547935
161	0x3cb895eb	0.022532424
162	0xbe460b8d	-0.19340344
163	0x3e469b87	0.19395266
164	0xbe53d06e	-0.20684978
165	0xbe35dc89	-0.17759909
166	0x3e036424	0.1283117
167	0xbe24fdfb	-0.16112511
168	0x3e3b9d09	0.18321623
169	0xbc43032b	-0.011902611
170	0x3d449ab4	0.0479991
171	0xbd3ffc2f	-0.04687136
172	0xbe598cdf	-0.21245144
173	0xbcfe69af	-0.031056253
174	0x3e12c9c6	0.14334783
175	0x3cd487e1	0.025943698
176	0xbe19b631	-0.15010907
177	0xbe36a555	-0.17836507
178	0x3d0b4468	0.034000784
179	0x3df7895b	0.12086745
180	0xbe6bd362	-0.23029855
181	0x3e8d005a	0.2753933
182	0xbe77e385	-0.24207886
183	0xbea7c863	-0.3277007
184	0xbc0e5036	-0.008686116
185	0xbcea6b5f	-0.028615652
186	0x3ea8ea00	0.32991028
187	0xbe583fc5	-0.21118076
188	0xbc975c5e	-0.018476661
189	0xbd23284f	-0.039833363
190	0xbe613bdd	-0.21995492
191	0xbe091467	-0.13386689
192	0xbd391565	-0.04518642
193	0xbc7233ca	-0.014782855
194	0xbe6fce75	-0.23418601
195	0x3e17c3f3	0.14820842
196	0x3d994e84	0.07485679
197	0x3e2f2bed	0.171066
198	0xbd7d5782	-0.061851032
199	0x3e2544c4	0.16139513
200	0xbcd7f642	-0.026362542
201	0x3e30df6c	0.17272729
202	0x3c89839a	0.016786385
203	0x3d7fe9cb	0.06247882
204	0x3ce0fa67	0.027463151
205	0xbdc7a815	-0.09748856
206	0x3ba30f1f	0.004976168
207	0x3e3aa2df	0.18226193
208	0xbe42761d	-0.18990369
209	0x3d641a29	0.05568901
210	0x3d58043f	0.052738424
211	0x3e1d719b	0.15375368
212	0xbbf5473d	-0.007485299
213	0x3bb67e18	0.0055692308
214	0x3cfebea7	0.03109677
215	0xbcca1765	-0.024669359
216	0x3c2552ee	0.010090573
217	0xbd747ca4	-0.05968918
218	0x3e806f73	0.2508503
219	0xbabe168a	-0.0014502567
220	0x3b44e5e1	0.0030044245
221	0x3dd633ae	0.10459076
222	0xba35b29d	-0.00069312175
223	0xbda39158	-0.079867065
224	0x3dd30195	0.10303036
225	0xbe473509	-0.19453825
226	0xbcc6a9ed	-0.024250949
227	0xbd30cc69	-0.04316369
228	0xbeb0fb37	-0.34566662
229	0xbe5ad0ad	-0.21368666
230	0xbe7c4200	-0.24634552
231	0xbb34ccc3	-0.0027587868
232	0x3de44762	0.11146428
233	0x3cb37ee6	0.021911096
234	0xbda5358c	-0.08066854
235	0x3e0db9ec	0.13840455
236	0x3d1931b3	0.037400912
237	0x3e266979	0.16251172
238	0x3d2f5068	0.04280129
239	0xbe8741eb	-0.2641748
240	0x3c18f249	0.009335109
241	0xbced6d0d	-0.028982664
242	0x3db54b04	0.08852199
243	0x3e05946f	0.13044904
244	0xbdfdaa15	-0.12385956
245	0x3dfe69ca	0.124225214
246	0xbe1f7136	-0.1557053
247	0x3cff83a2	0.031190697
248	0xbe9dda7f	-0.30830762
249	0xbe83c867	-0.25738832
250	0xbdef916b	-0.11697658
251	0xbdc8b627	-0.09800368
252	0x3dbb9d7e	0.091608986
253	0xbd89d4c2	-0.067300335
254	0xbd3690b9	-0.044571612
255	0xbd234445	-0.03986003

actor_mlp.mlp.2.bias f4 [128]
0	0xbc5986ea	-0.013276795
1	0xbeac9163	-0.3370467
2	0xbdce70f5	-0.100801386
3	0xbe4fb83a	-0.2028512
4	0xbe162acb	-0.14664762
5	0xbe2873d6	-0.16450438
6	0xbe5241a6	-0.20532855
7	0xbe6fba1b	-0.23410837
8	0xbdc45c4c	-0.09587917
9	0xbe1adc09	-0.15122999
10	0xbe0103e3	-0.12599139
11	0xbcbb133e	-0.022836324
12	0xbe0808e0	-0.13284636
13	0xbd351322	-0.0442077
14	0xbe8c7b0c	-0.27437627
15	0xbe9b4e45	-0.30333152
16	0xbd0ed5e0	-0.034871936
17	0xbe394d54	-0.18095905
18	0xbdf4a16c	-0.11944851
19	0xbe838127	-0.25684473
20	0xbe455372	-0.19270113
21	0xbdbbaa1e	-0.09163307
22	0xbce24fc2	-0.027625922
23	0xbe849f31	-0.25902703
24	0xbd9f32f6	-0.07773392
25	0xbe78d521	-0.24300052
26	0x3ba9a59b	0.0051772124
27	0xbe4c1a5a	-0.19931927
28	0xbe2edd6b	-0.17076652
29	0xbe9b8970	-0.30378294
30	0xbe48f95c	-0.19626373
31	0xbe0927f5	-0.13394149
32	0xbe677480	-0.22603035
33	0xbcf87fc1	-0.030334355
34	0xbea84cd0	-0.32871103
35	0xbe316585	-0.17323883
36	0xbd68dd64	-0.05685176
37	0xbdeabfc9	-0.11462361
38	0xbeadf729	-0.3397763
39	0xbe107354	-0.14106494
40	0xbd4f9b11	-0.050684992
41	0xbd4ce6c1	-0.05002475
42	0xbdd1c7bc	-0.102431744
43	0xbe3d262f	-0.18471597
44	0xbe1d4c79	-0.15361203
45	0xbe0c839d	-0.13722081
46	0xbcf64008	-0.03005983
47	0xbe726a9f	-0.23673485
48	0xbea099d7	-0.3136737
49	0xbda5d61b	-0.08097478
50	0xbe60e9f2	-0.21964243
51	0xbe9254e7	-0.285804
52	0xbe4a7e10	-0.19774652
53	0xbd9f35cc	-0.07773933
54	0xbd63886a	-0.055550016
55	0xbe05997f	-0.13046835
56	0xbe280c3a	-0.16410914
57	0xbd9099d9	-0.07060594
58	0xbe98f70e	-0.29875988
59	0xbdc5bae5	-0.09654788
60	0xbcef8037	-0.029235942
61	0xbe727779	-0.23678388
62	0xbd038b49	-0.032115255
63	0xbb958287	-0.004562679
64	0xbd0cbaac	-0.03435771
65	0xbe90deb8	-0.2829492
66	0xbdb70175	-0.08935825
67	0xbda1c039	-0.07897992
68	0xbe8023f8	-0.25027442
69	0xbe0a27a4	-0.13491684
70	0xbda8b324	-0.08237293
71	0xbe212579	-0.15736951
72	0xbeaaca79	-0.333576
73	0xbe15f8d7	-0.14645706
74	0x3db8d802	0.09025575
75	0xbcf61aad	-0.030042017
76	0xbdd51320	-0.104040384
77	0xbe9e625e	-0.30934423
78	0xbd454481	-0.048161034
79	0xbc9a2a6d	-0.018819058
80	0xbe4c70f5	-0.19964965
81	0xbe08e6fe	-0.13369367
82	0xbe804136	-0.25049752
83	0xbe0a0929	-0.13480057
84	0xbc93ae5f	-0.018027483
85	0xbd4d60c9	-0.05014113
86	0xbd6e4670	-0.058172643
87	0xbecdb7da	-0.4017933
88	0xbe2fe564	-0.1717735
89	0xbe7ab02e	-0.2448127
90	0xbd20c574	-0.039250806
91	0xbe7a24f0	-0.24428153
92	0xbd9df379	-0.07712454
93	0xbe3b4d2b	-0.18291156
94	0xbd2f643a	-0.042820193
95	0xbe90ed7a	-0.2830618
96	0xbea84b12	-0.32869774
97	0xbda744fe	-0.08167456
98	0xbe38f5f2	-0.1806257
99	0xbceecc8a	-0.029150266
100	0xbd83cc59	-0.064354606
101	0xbe12bf01	-0.14330675
102	0xbdb28add	-0.08717892
103	0xbe375057	-0.17901741
104	0xbec978dc	-0.3935002
105	0xbe5e5a1e	-0.21714064
106	0xbdb46b63	-0.08809545
107	0xbe934eb0	-0.2877097
108	0xbc08118c	-0.008304965
109	0xbd70b2f7	-0.058764424
110	0xbe120b8c	-0.14262217
111	0xbd92258e	-0.07136069
112	0xbd45e92b	-0.04831807
113	0xbe675214	-0.22589904
114	0xbde2a728	-0.11067039
115	0xbdad4bb5	-0.084617056
116	0xbdf64796	-0.12025373
117	0xbeb08504	-0.34476483
118	0xbd8ae08d	-0.06781111
119	0xbd5a1eac	-0.053251907
120	0xbce3a4e3	-0.027788585
121	0xbe07957c	-0.13240618
122	0xbc6f6624	-0.014611755
123	0xbd89ca6a	-0.067280605
124	0xbdc52d9c	-0.0962784
125	0xbdc29837	-0.09501689
126	0xbe613b02	-0.21995166
127	0xbdbaec0f	-0.09127056

value_mlp.mlp.0.weight f4 [256, 18]
0	0x3db434ef	0.08799159
1	0x3d4dd34c	0.050250337
2	0xbc3fb435	-0.01170068
3	0x3dfe2baa	0.12410672
4	0x3d9be5be	0.07612179
5	0x3d921dae	0.07134567
6	0xbd9bbe18	-0.07604617
7	0x3ca1fe90	0.019774705
8	0x3dc72dc2	0.097255245
9	0xbd638297	-0.055544462
10	0x3b1d9e8f	0.0024050807
11	0x3e3b80df	0.18310879
12	0xbd617f53	-0.055053066
13	0x3dce6586	0.10077958
14	0x3e142741	0.14468099
15	0xbd978b75	-0.07399646
16	0xbe906b55	-0.28206888
17	0x3e6b1adf	0.2295947
18	0xbaf7d561	-0.0018908196
19	0x3cbc3afe	0.022977348
20	0xbdee008d	-0.11621199
21	0xbe1f7b8d	-0.15574475
22	0xbd87e849	-0.06636102
23	0xbcbaa209	-0.022782343
24	0x3cfe60bd	0.031051988
25	0xbd3b9fb6	-0.04580661
26	0x3c26e758	0.010186993
27	0xbcf58be2	-0.029973928
28	0x3d8b8c2a	0.068138435
29	0x3d1eb7c8	0.038749486
30	0xbc3458f4	-0.011007536
31	0x3e3891af	0.18024324
32	0x3df049a6	0.11732797
33	0xbcadc9c4	-0.021214373
34	0xbea76bde	-0.32699484
35	0xbe1efbed	-0.1552579
36	0xbd7c08b0	-0.061531723
37	0x3d21f304	0.0395384
38	0x3e72e330	0.23719478
39	0xbdd90a26	-0.10597639
40	0x3cd2aeb0	0.025718063
41	0xbde9aa32	-0.11409415
42	0x3debe192	0.115176335
43	0xbd68f0fe	-0.056870453
44	0x3de3b31c	0.11118147
45	0x3d15bfcb	0.03655986
46	0x3d7f4a20	0.06232655
47	0x3d23e5f7	0.040014233
48	0xbe66ec16	-0.22550997
49	0xbd29ab0b	-0.041422885
50	0x3e1cf20e	0.15326712
51	0xbdfc5eb6	-0.12322752
52	0xbf14c45d	-0.58112127
53	0x3ed2594d	0.41083756
54	0x3cb5818b	0.022156497
55	0xbde0cb53	-0.10976281
56	0x3e43474c	0.19070166
57	0x3e4465df	0.19179486
58	0xbe03f8cd	-0.12887879
59	0xbd9c7d31	-0.07641066
60	0x3d061904	0.0327387
61	0x3d34c3af	0.04413193
62	0xbe39a92f	-0.18130945
63	0x3e431fb3	0.19055061
64	0x3c2da055	0.010597308
65	0xbea1813d	-0.31543913
66	0xbe84452b	-0.2583402
67	0x3e38bfd8	0.18041933
68	0x3e0680ca	0.13135067
69	0xbdc3b260	-0.09555507
70	0x3dc65610	0.09684384
71	0x3de92e7a	0.11385818
72	0x3d23b5b1	0.039968196
73	0xbdb35b8c	-0.087576956
74	0x3e33d8db	0.17563193
75	0x3c174a27	0.009233988
76	0x3d652ef4	0.05595298
77	0xbe4e5c9a	-0.20152512
78	0x3e132a0b	0.14371507
79	0xbcb5df4e	-0.022201207
80	0x3b66fbb2	0.0035245237
81	0x3e87e424	0.26541245
82	0xbd4a1c13	-0.04934318
83	0x3ceb2afd	0.028707022
84	0xbf02a9b3	-0.5104019
85	0xbdc7c566	-0.09754448
86	0xbef7d272	-0.48402745
87	0xbe5971e2	-0.21234849
88	0xbc4bcbd2	-0.012438731
89	0xbd92721e	-0.071506724
90	0x3dd874e2	0.105691686
91	0xbe3058d9	-0.17221393
92	0x3ec45ed1	0.3835359
93	0xbe0f474c	-0.13992041
94	0xbd1e6e2e	-0.038679294
95	0x3e112426	0.14173946
96	0x3d1a2ba2	0.037639268
97	0x3d4c163d	0.049825896
98	0xbe14d3ef	-0.14533971
99	0x3ddf2ce9	0.10897238
100	0xbda0702d	-0.07833896
101	0xbde0e4d8	-0.109811485
102	0xbe862627	-0.26200983
103	0x3e5fcb9d	0.21855016
104	0xbeb1ec1d	-0.34750453
105	0xbe261b10	-0.16221261
106	0x3bc1ec6d	0.0059180767
107	0xbdc31ac7	-0.09526592
108	0xbda20afe	-0.07912253
109	0xbdf23956	-0.11827342
110	0xbe5523be	-0.20814416
111	0xbcb15404	-0.021646507
112	0xbde84b47	-0.11342483
113	0x3d720875	0.059090097
114	0xbd9dfa83	-0.07713797
115	0xbc95d78e	-0.018291261
116	0xbd342d45	-0.043988485
117	0x3cab1749	0.020885127
118	0x3a82c4aa	0.0009976823
119	0x3d2ab11c	0.04167281
120	0x3d9ae893	0.07563891
121	0x3e042f95	0.12908776
122	0x3e863920	0.26215458
123	0xbdea0a8e	-0.114277944
124	0xbe49942f	-0.19685434
125	0x3e42f6c3	0.19039445
126	0x3d26ab30	0.0406906
127	0xbd86bc5f	-0.06578898
128	0x3dfbb1cf	0.12289774
129	0x3d5f72bb	0.054552775
130	0xbcea2ea8	-0.0285867
131	0xbc345ba3	-0.011008176
132	0x3d6e5c61	0.05819357
133	0xbd3e4761	-0.04645479
134	0xbc824c39	-0.015905486
135	0xbe20efe8	-0.15716517
136	0x3e222c54	0.15837222
137	0xbe0404d2	-0.12892464
138	0x3d610629	0.054937515
139	0xbf2e6474	-0.6812203
140	0x3e17ee65	0.14837034
141	0x3b42f3ca	0.002974736
142	0xbec05b6f	-0.37569758
143	0x3de8adc3	0.113612674
144	0x3dce336d	0.100684024
145	0x3e190f14	0.14947158
146	0xbe9f7645	-0.3114492
147	0x3d89203e	0.06695603
148	0x3d9b4f3c	0.07583472
149	0xbe612258	-0.21985757
150	0x3cea4def	0.028601615
151	0x3d9137b7	0.07090705
152	0x3d3db7a3	0.046317708
153	0xbd08c42f	-0.03339022
154	0xbe4958d0	-0.19662786
155	0x3e3f6728	0.18691695
156	0xbe2c5151	-0.16827895
157	0x3e4f325f	0.20234059
158	0x3d817ce3	0.063226484
159	0x3e206c1e	0.15666243
160	0x3e780ac9	0.24222864
161	0x3e32e40c	0.17469805
162	0x3e11b64f	0.14229701
163	0xbdbe6516	-0.09296624
164	0xbd130e48	-0.03590229
165	0xbbc947e1	-0.006142602
166	0x3d51a35b	0.05118118
167	0xbd0dbbe9	-0.034603033
168	0x3e1d0995	0.15335687
169	0x3de8c73a	0.113661245
170	0x3c2f019b	0.010681535
171	0x3c1ec8ae	0.0096914
172	0x3d103909	0.035210643
173	0x3cce3320	0.025170863
174	0xbe082c0e	-0.13298056
175	0x3cdbc857	0.026828928
176	0xbf3baef0	-0.7331381
177	0x3cc4f8b8	0.02404438
178	0x3cbb1b0e	0.02284005
179	0xbd15e1c3	-0.036592256
180	0x3b386c39	0.0028140678
181	0xbd2550b9	-0.040360186
182	0x3e3051cb	0.17218702
183	0xbc9aae12	-0.018881831
184	0xbc21f5d0	-0.009885266
185	0x3dbc1ceb	0.09185203
186	0xbd9e8fa9	-0.07742245
187	0x3d127f0d	0.035765696
188	0x3b018aac	0.0019766493
189	0xbd82394f	-0.06358587
190	0xbcca6270	-0.024705142
191	0xbe266f85	-0.16253479
192	0xbe822796	-0.25420827
193	0xbf151450	-0.5823412
194	0x3eb37a48	0.3505423
195	0x3d84e507	0.06488996
196	0xbd21910b	-0.039444964
197	0xbd884b0c	-0.06654939
198	0x3e4341f0	0.19068122
199	0xbe583476	-0.21113762
200	0xbdaf72fb	-0.08566853
201	0xbb79bcc1	-0.003810689
202	0x3e7cdc96	0.24693522
203	0xbd0bab18	-0.034098715
204	0xbd200414	-0.03906639
205	0x3cf47287	0.029839767
206	0xbd22c567	-0.03973904
207	0xbe11a291	-0.1422217
208	0xbe02ae1a	-0.12761727
209	0x3e0bda6a	0.13657537
210	0xbd060fd0	-0.032729924
211	0x3df70891	0.12062181
212	0xbf0ae5c6	-0.54256856
213	0xbda47b7f	-0.080313675
214	0xbd09509c	-0.03352414
215	0xbe906bd3	-0.28207263
216	0xbd871e00	-0.06597519
217	0xbdd8890f	-0.10573017
218	0x3e4ab353	0.1979497
219	0x3d995b2e	0.07488094
220	0xbdd7cd3e	-0.10537194
221	0x3e1545d5	0.1457742
222	0x3e3492d4	0.17634135
223	0x3c89c15c	0.016815834
224	0xbd1380c5	-0.036011476
225	0xbc3eced7	-0.011645994
226	0xbe61e460	-0.22059774
227	0x3d8e9349	0.06961686
228	0x3c1b8d94	0.009494204
229	0x3ca92751	0.02064863
230	0xbebe6baf	-0.3719153
231	0xbb563f68	-0.0032691602
232	0x3c6bfd27	0.014403618
233	0x3dd11ef7	0.10210984
234	0x3c55ab39	0.013041311
235	0x3dac29cc	0.084064096
236	0xbde1ea7a	-0.11031051
237	0x3ca4090c	0.020023845
238	0x3d6923b6	0.056918822
239	0xbc881875	-0.016613225
240	0x3d414d68	0.04719296
241	0x3cde3a3a	0.027127374
242	0x3c810521	0.015749516
243	0x3db73ef2	0.08947553
244	0xbc0bf402	-0.008542063
245	0x3d13312e	0.035935573
246	0x3cd6267d	0.0261414
247	0xbed0d0fb	-0.4078444
248	0xbeb68d5d	-0.35654727
249	0xbd2afb62	-0.041743644
250	0x3ef3eb7e	0.47640604
251	0xbb6fd35c	-0.0036594486
252	0x3d8beb99	0.06832046
253	0xbd9e1a11	-0.077198155
254	0x3c01b395	0.007916351
255	0x3e9a0f79	0.3008993

value_mlp.mlp.0.bias f4 [256]
0	0xbe9fd3aa	-0.31216174
1	0x3e99dcb0	0.30051184
2	0xbeb4f340	-0.35341835
3	0x3e14a1a3	0.14514785
4	0xbdd2f8e9	-0.10301382
5	0xbe87aa05	-0.26496902
6	0x3df9da87	0.12199884
7	0xbe918c5a	-0.28427392
8	0x3f05530f	0.5207986
9	0xbe772fe1	-0.24139358
10	0xbee2ed2e	-0.4432158
11	0xbe3cd797	-0.18441616
12	0xbe395603	-0.18099217
13	0xbf064c49	-0.5246015
14	0xbe6e55ba	-0.2327489
15	0xbed89494	-0.42300856
16	0x3e4d2cda	0.20036641
17	0xbee370b2	-0.44421917
18	0xbf070e65	-0.5275634
19	0xbca56e04	-0.020194061
20	0x3bc1da8f	0.005915947
21	0xbeeedba8	-0.4665196
22	0xbf2e7782	-0.68151104
23	0xbd545f2a	-0.051848568
24	0xbebeecd7	-0.3729007
25	0xbea4174e	-0.3204903
26	0xbe197c15	-0.1498874
27	0xbe3e2493	-0.1856864
28	0xbd8b42fd	-0.067998864
29	0xbf126df0	-0.57199
30	0xbf0e46c2	-0.5557672
31	0x3eb0629f	0.34450242
32	0xbf4fac24	-0.8112204
33	0x3da0a634	0.07844201
34	0x3e556e2d	0.2084281
35	0x3f03f45f	0.51544756
36	0xbf057499	-0.5213104
37	0xbf02d8d0	-0.5111208
38	0xbef1074c	-0.4707588
39	0x3d1db7ae	0.03850525
40	0x3e23672a	0.15957323
41	0x3dd427e3	0.1035917
42	0x3d0dff58	0.034667343
43	0xbe478f4c	-0.19488257
44	0xbdc46063	-0.09588697
45	0x3ee0123f	0.4376392
46	0xbf1a67fe	-0.6031493
47	0x3d09cd09	0.033642802
48	0xbe9e6a66	-0.3094055
49	0xbe793b26	-0.2433897
50	0xbec3ffe2	-0.3828116
51	0xbf20f473	-0.62873
52	0xbdeba8f8	-0.115068376
53	0xbd70a683	-0.058752548
54	0x3efd7d00	0.4950943
55	0xbebf06d0	-0.37309885
56	0xbe9b7ed4	-0.303702
57	0x3dc11ad1	0.09428943
58	0x3e0b6a31	0.13614728
59	0x3efcdb94	0.49386275
60	0x3e9d90e2	0.307746
61	0x3f07d960	0.5306606
62	0xbf1050ef	-0.56373495
63	0xbe697d54	-0.22801715
64	0xbee6b0db	-0.45056805
65	0xbedd7a4b	-0.43257365
66	0xbd36dd8d	-0.04464488
67	0x3e784c52	0.24247864
68	0xbdc8481a	-0.09779377
69	0x3dbab236	0.09116022
70	0xbdc26574	-0.09492007
71	0xbd130072	-0.035889097
72	0x3e25e3d6	0.16200194
73	0x3c7bfebe	0.0153805595
74	0x3eba6972	0.36408573
75	0xbeeccf53	-0.46251926
76	0xbc2162e6	-0.009850239
77	0xbe4b0fad	-0.19830199
78	0xbd171e17	-0.03689393
79	0xbf1bdd66	-0.608847
80	0x3e14a25b	0.14515059
81	0xbdcb55f9	-0.09928507
82	0xbd0a87b1	-0.03382081
83	0xbe9e7e7a	-0.3095587
84	0xbddb52e7	-0.10709172
85	0xbf0a2a4a	-0.5397078
86	0xbd3ae622	-0.045629628
87	0xbdc0ac2e	-0.09407841
88	0x3e8f4f1e	0.2799005
89	0x3bafb5ad	0.0053622336
90	0x3cda67db	0.02666085
91	0xbe30c72e	-0.17263481
92	0x3dc97527	0.09836798
93	0xbd6ef692	-0.058340617
94	0xbe561d94	-0.2090972
95	0xbebf85ff	-0.37406918
96	0xbe415495	-0.18879922
97	0xbcf0da0d	-0.02940085
98	0xbe9e2e84	-0.30894864
99	0xbeb69c36	-0.35666054
100	0x3ec02fca	0.3753646
101	0xbe712904	-0.23550802
102	0xbe605287	-0.21906482
103	0x3e270992	0.16312245
104	0xbe85e54b	-0.261515
105	0x3e973210	0.29530382
106	0xbdbf9c69	-0.09356005
107	0xbeee63a6	-0.465604
108	0x3e05e48d	0.13075466
109	0xbd4ce2ae	-0.050020866
110	0xbe309bb8	-0.17246902
111	0x3efa70f8	0.48914313
112	0x3efefb2d	0.49801007
113	0x3e110d09	0.14165129
114	0x3e5310ad	0.2061183
115	0xbf183ef1	-0.5947104
116	0xbecb7641	-0.39738658
117	0x3e903274	0.28163493
118	0xbd04366a	-0.032278456
119	0xbeee4f13	-0.46544704
120	0x3e80d8da	0.25165445
121	0xbd66310d	-0.056199122
122	0xbee3c71a	-0.4448784
123	0xbea53e38	-0.32274032
124	0x3ddf3a2c	0.10899767
125	0xbe7d26ba	-0.24721804
126	0x3ef7aa50	0.48372126
127	0xbec06866	-0.3757965
128	0x3e8edae3	0.27901372
129	0xbf31e5e3	-0.69491404
130	0xbd4a0bd2	-0.04932768
131	0x3c8a7710	0.016902477
132	0xbdfb1753	-0.12260308
133	0xbdf84e98	-0.121243656
134	0xbee1e07d	-0.44116583
135	0xbec01b62	-0.3752089
136	0xbeac92e9	-0.33705834
137	0x3da43df4	0.08019629
138	0x3e34542d	0.17610236
139	0xbd953562	-0.072855726
140	0xbe9aec2b	-0.30258307
141	0xbdd81ed1	-0.10552753
142	0x3ec179d3	0.37788257
143	0xbed0da1e	-0.4079141
144	0x3ea6415b	0.32471737
145	0xbe849a64	-0.2589904
146	0xbad5c098	-0.0016308008
147	0x3ed793fc	0.4210509
148	0xbeef87e9	-0.4678338
149	0xbefbfb4b	-0.4921516
150	0xbc3688bd	-0.011140999
151	0x3db446ef	0.08802592
152	0xbf0c42f3	-0.54789656
153	0xbebab37b	-0.36465058
154	0xbd2bb1c9	-0.041917596
155	0x3e37067a	0.17873564
156	0x3f23a356	0.63921106
157	0xbccaf206	-0.024773609
158	0xbd6aa502	-0.05728627
159	0xbe83890f	-0.25690505
160	0xbdf26577	-0.11835759
161	0x3eee5ee1	0.46556762
162	0x3f0798f1	0.52967745
163	0x3ded8a41	0.115986355
164	0xbe4b6daf	-0.1986606
165	0xbeb40d06	-0.35166186
166	0xbdc74a2e	-0.097309455
167	0xbec9d73e	-0.3942203
168	0xbc2ac6ba	-0.010423357
169	0x3db70597	0.08936613
170	0xbce163cf	-0.027513413
171	0xbe9b4778	-0.30327964
172	0x3da9e110	0.082948804
173	0x3ec1b294	0.37831557
174	0xbdaaa674	-0.0833253
175	0xbf33ff1e	-0.7031115
176	0x3da3fb35	0.08006898
177	0xbe1edc4c	-0.15513724
178	0xbef78820	-0.48346043
179	0x3e5a6d91	0.21330859
180	0xbf2e67fc	-0.6812742
181	0xbe52b03f	-0.20575045
182	0xbf028892	-0.5098964
183	0xbddeed2e	-0.10885082
184	0xbe2c3dc9	-0.16820444
185	0xbdbb4d3b	-0.0914559
186	0xbeb4ebe2	-0.35336214
187	0xbebe3463	-0.37149343
188	0xbf224600	-0.6338806
189	0xbe53638f	-0.20643447
190	0x3e8bed2d	0.27329388
191	0xbe608ef9	-0.2192954
192	0x3ef8cd09	0.4859393
193	0xbe80d313	-0.25161037
194	0xbdb0bfc9	-0.0863033
195	0xbec2db59	-0.38057974
196	0xbf2b8e5e	-0.6701411
197	0xbe8fc18e	-0.28077358
198	0xbeb75d50	-0.3581338
199	0xbec28e25	-0.37999073
200	0xbe54f8f5	-0.20798095
201	0x3d308ed7	0.043104973
202	0xbe154e80	-0.14580727
203	0xbef620bf	-0.48071858
204	0x3dd7b592	0.10532679
205	0x3eda0ee7	0.42589495
206	0x3bf6d710	0.0075329617
207	0xbea508d0	-0.32233286
208	0xbed6ff65	-0.41991726
209	0xbd391d39	-0.045193885
210	0x3e8e228e	0.27760738
211	0xbefce3ee	-0.49392647
212	0xbf0c91a4	-0.5490973
213	0xbf214190	-0.62990665
214	0xbe55918d	-0.20856304
215	0xbb3ebc93	-0.0029104098
216	0x3d860685	0.06544212
217	0x3f06e3c8	0.52691317
218	0xbdeb6a59	-0.114948936
219	0xbe5d1ffe	-0.21594235
220	0xbe20f288	-0.15717518
221	0xbebdc531	-0.37064508
222	0x3f2d1e73	0.67624587
223	0x3e3ef38e	0.18647596
224	0xbe60bfbe	-0.21948144
225	0x3a9ceeac	0.0011972985
226	0x3da1d488	0.07901865
227	0x3deb6882	0.11494543
228	0xbe9fcc61	-0.31210616
229	0xbe97e73d	-0.29668608
230	0xbe12791e	-0.14304015
231	0xbf00c035	-0.50293285
232	0x3e510a4b	0.20414083
233	0xbedaf3a2	-0.42764002
234	0x3e762fb0	0.24041629
235	0xbf3b4073	-0.73145217
236	0xbd98f207	-0.07468038
237	0xbf0b295e	-0.54359996
238	0xbe7d3066	-0.24725494
239	0x3dd27104	0.10275462
240	0xbc20fdc4	-0.009826127
241	0xbe8df979	-0.27729395
242	0x3eef16b4	0.4669701
243	0x3e329f44	0.17443568
244	0x3a6d0293	0.0009041216
245	0xbe54461b	-0.20729868
246	0x3e11d219	0.14240302
247	0xbebd9039	-0.37024096
248	0xbea136bd	-0.31487074
249	0x3e8340ca	0.25635368
250	0x3d9928ff	0.074785225
251	0x3e60bcc7	0.21947013
252	0xbf18608e	-0.5952233
253	0xbe603f55	-0.21899159
254	0xbf041d86	-0.5160755
255	0xbeb3a76b	-0.35088667

value_mlp.mlp.2.weight f4 [128, 256]
0	0x3e001198	0.12506711
1	0x3cfb61e5	0.030686328
2	0xbd4a63d8	-0.049411625
3	0xbd94abf9	-0.07259364
4	0x3de90004	0.11376956
5	0x3c46e457	0.012139401
6	0x3dda0230	0.106449485
7	0xbe16a58a	-0.14711586
8	0x3d7cde63	0.061735522
9	0x3a971a8d	0.0011528298
10	0xbde63938	-0.11241382
11	0x3d502595	0.05081709
12	0xbc145d77	-0.009055487
13	0x3dce236c	0.1006535
14	0xbcd47e0c	-0.02593901
15	0x3d04cd29	0.03242222
16	0xbd8184f8	-0.0632419
17	0xbcccd2a2	-0.025002781
18	0xbc9211e9	-0.017830806
19	0xbd524f6e	-0.05134528
20	0x3dc56f0f	0.09640323
21	0x3ddeb608	0.108745635
22	0x3e13999e	0.14414069
23	0x3e0297e5	0.12753256
24	0x3ccf9557	0.025339765
25	0x3d18f16d	0.037339617
26	0x3da21a24	0.07915142
27	0x3dc1dbca	0.094657496
28	0xbdb230f3	-0.087007426
29	0x3c354eeb	0.011066179
30	0xbd00e93f	-0.03147244
31	0xbd3880e4	-0.045044795
32	0x3da6b314	0.08139625
33	0x3c855ba2	0.016279045
34	0x3d0b7d40	0.034054995
35	0x3bbfe81e	0.005856528
36	0x3e6827fe	0.22671506
37	0x3a8e3739	0.0010850198
38	0xbdc169d2	-0.09444012
39	0xbdf6ba6b	-0.12047275
40	0xbbf152ae	-0.0073645925
41	0xbe427541	-0.18990041
42	0x3ded5e27	0.11590224
43	0x3caf1baa	0.021375496
44	0xbdd3db69	-0.103445835
45	0xbcf06d55	-0.029349009
46	0xbdf7a2a9	-0.12091572
47	0xbd9c05c4	-0.07618287
48	0xbcd3a46c	-0.025835238
49	0xbe008599	-0.12550963
50	0xbe3b0634	-0.18264085
51	0x3de7d1a9	0.113192864
52	0xbe0242a4	-0.12720734
53	0xbdad7d1d	-0.08471129
54	0xbd6e42b5	-0.058169086
55	0xbd40792d	-0.046990562
56	0xbd76a79d	-0.060218442
57	0xbd0dccef	-0.034619268
58	0xbe1f1cdc	-0.15538353
59	0x3e141685	0.14461716
60	0xba8f5694	-0.0010935836
61	0xbdbe40a7	-0.09289675
62	0xbda18255	-0.07886187
63	0xbdc70f34	-0.09719697
64	0x3dd33637	0.10313075
65	0x3da0a3e4	0.0784376
66	0x3e04e947	0.12979613
67	0x3d1a5638	0.03767988
68	0x3de3c246	0.11121039
69	0xbd164d99	-0.036695097
70	0xbcb28812	-0.021793399
71	0xbd17645e	-0.036960952
72	0x3c8c65ec	0.017138444
73	0xbe3f3968	-0.18674242
74	0x3daaa6f1	0.08332623
75	0x3c7d9d25	0.015479361
76	0xbd4c8fbf	-0.049941774
77	0x3dde47b3	0.10853519
78	0x3d1d7419	0.038440797
79	0x3c3d1e98	0.011542939
80	0xbbfa900a	-0.0076465653
81	0xbd253358	-0.04033217
82	0x3c11fbc9	0.008910128
83	0xbdb22278	-0.08697981
84	0xbc8ae17c	-0.016953222
85	0x3d52b9c2	0.051446684
86	0xbd25dab3	-0.04049177
87	0x3c5cd7e9	0.013479211
88	0xbe6b93aa	-0.23005548
89	0x3d5de19f	0.054170247
90	0x3dc94380	0.09827328
91	0x3c845820	0.016155303
92	0x3d1d9a47	0.03847721
93	0xbb0f25c1	-0.0021842571
94	0x3e01ffe5	0.12695272
95	0x3b18b848	0.00233032
96	0xbd6a3f7d	-0.057189453
97	0xbe6dbfb2	-0.23217657
98	0xbbf66cb1	-0.0075202812
99	0xbd2565eb	-0.0403804
100	0x3df00036	0.1171879
101	0xbdeb686e	-0.11494528
102	0xbc2abc63	-0.010420891
103	0x3cb133b0	0.021631092
104	0x3cae9f3d	0.021316165
105	0xbe36d0d4	-0.17853099
106	0xbccb7eeb	-0.024840793
107	0xbba50f69	-0.0050372374
108	0x3de728e9	0.112871
109	0xbc872b0e	-0.016500022
110	0x3dd01d92	0.1016189
111	0xbc6c266a	-0.0144134555
112	0xbd9aaedd	-0.07552884
113	0xbd861726	-0.06547384
114	0xbe15f8c8	-0.14645684
115	0x3d792771	0.06082863
116	0xbcef3526	-0.029200148
117	0x3e0012fc	0.12507242
118	0xbe0f8eed	-0.14019366
119	0x3dbca451	0.09211028
120	0xbe2515ee	-0.16121647
121	0xbdd7e8f2	-0.10542478
122	0xbd81a0b3	-0.06329479
123	0x3e1c2ea2	0.15252164
124	0xbd3e3381	-0.046435837
125	0xbd617036	-0.055038653
126	0x3d03f0fa	0.032212235
127	0xbd01a6eb	-0.031653326
128	0xbdaaef12	-0.0834638
129	0xbd93a7b3	-0.072097205
130	0x3d544e4c	0.051832482
131	0x3dca3209	0.09872825
132	0x3e876df1	0.26451066
133	0x3df6e91a	0.12056179
134	0x3dfe6766	0.124220654
135	0x3d6dab8a	0.05802492
136	0xbddc3c4c	-0.10753688
137	0x3cbea66c	0.023272716
138	0xbd1aa31c	-0.03775321
139	0xbd182b7f	-0.037150856
140	0xbe1278c5	-0.14303882
141	0x3dee46ce	0.11634599
142	0xbd4832c8	-0.048876554
143	0xbb855d2e	-0.004069946
144	0xbccf982c	-0.025341116
145	0xbdb7cc49	-0.08974511
146	0x3dad3199	0.084567256
147	0xbd8e5530	-0.06949842
148	0xbdf1f3cb	-0.11814078
149	0x3db3bcb9	0.0877623
150	0xbd262d83	-0.040570747
151	0xbe07961d	-0.13240857
152	0x3d879512	0.0662023
153	0x3d3f38bf	0.046684977
154	0x3cfd0804	0.030887611
155	0xbc65812d	-0.014007849
156	0x3ccd51d2	0.025063429
157	0xbd221577	-0.03957125
158	0x3cdd7dba	0.02703749
159	0x3e0393d0	0.12849355
160	0x3b79a81c	0.0038094586
161	0xbda582b2	-0.08081569
162	0x3d92b9f5	0.07164375
163	0xbdac5793	-0.08415141
164	0xbd0ab0d0	-0.033860028
165	0xbd8f7856	-0.07005374
166	0xbe2c1db2	-0.16808203
167	0xbc466a44	-0.012110297
168	0x3d0a41c7	0.033754136
169	0xbdc65921	-0.09684969
170	0x3cd75d79	0.026289688
171	0xbdf26c51	-0.11837066
172	0x3e55335a	0.2082037
173	0x3ddca1cf	0.1077305
174	0xbc99a092	-0.018753324
175	0x3d7c5d14	0.061612204
176	0xbc31a16a	-0.010841707
177	0xbd9d856d	-0.076914646
178	0x3d8fefec	0.07028183
179	0xbd097ddb	-0.03356729
180	0xbc2ce457	-0.010552487
181	0xbe19ec85	-0.15031631
182	0xbd36fbce	-0.044673733
183	0x3e1af59a	0.15132752
184	0xbd40a4e0	-0.047032237
185	0x3d407be1	0.04699314
186	0x3d88441d	0.066536166
187	0x3d72fa0a	0.059320487
188	0x3d3353bb	0.043781023
189	0xbd914e9a	-0.0709507
190	0x3d4b6146	0.049653314
191	0x3aad3304	0.0013214056
192	0x3d1dca4f	0.038523015
193	0xbe723025	-0.23651178
194	0xbd7642f3	-0.06012244
195	0x3d823838	0.06358379
196	0xbdb85258	-0.09000081
197	0xbc9133f7	-0.017724974
198	0xbd41a752	-0.04727871
199	0xbe0d135e	-0.13776919
200	0xbbed7742	-0.0072468827
201	0x3c979514	0.018503703
202	0xbcb36f7c	-0.021903746
203	0xbd949ff3	-0.072570704
204	0x3d4b7c92	0.049679346
205	0x3c25a9bd	0.01011127
206	0x3b92e055	0.004482309
207	0xbd47431b	-0.04864798
208	0x3ce0b074	0.02742789
209	0x3d00f084	0.031479374
210	0xbceebd1c	-0.029142909
211	0x3cd8ec51	0.026479872
212	0xbe101283	-0.14069562
213	0xbc8f4cfe	-0.017492767
214	0x3e2d55d4	0.16927272
215	0x3d6b261c	0.05740939
216	0xbc3a986e	-0.011388881
217	0x3cc053c4	0.023477443
218	0xbe012ab5	-0.12613948
219	0xbda91895	-0.08256642
220	0x3daa7d2f	0.08324658
221	0x3d292183	0.041291725
222	0x3de41911	0.111375935
223	0x3d1a74f9	0.03770921
224	0xbde26978	-0.11055273
225	0x3d64eb55	0.055888493
226	0x3ca2be23	0.019866055
227	0xbdfe46a2	-0.12415816
228	0xbc12997d	-0.008947727
229	0xbd9b567d	-0.07584856
230	0xbc9e9594	-0.019358434
231	0x3d9a8594	0.07545009
232	0x3dfdcdb4	0.123927504
233	0x3e2f9473	0.17146473
234	0xbc7d3d6c	-0.015456539
235	0xbde583cc	-0.11206779
236	0x3deb4372	0.114874735
237	0xbd8b4590	-0.06800377
238	0x3da8f0b0	0.082490325
239	0xbd8a5bee	-0.067558154
240	0xbd4b4257	-0.049623813
241	0xbd46fcbd	-0.048580874
242	0x3d8c1a8a	0.068409994
243	0xbbde77e2	-0.0067891935
244	0x3d5643c3	0.052310716
245	0xb9c963fd	-0.00038412205
246	0x3cb93b04	0.022611149
247	0x3d4f535d	0.05061661
248	0xbda29ace	-0.07939683
249	0x3e0d773c	0.13815016
250	0xbd590b64	-0.05298938
251	0xbcee8c28	-0.029119566
252	0xbdccbe63	-0.09997251
253	0x3dc62897	0.09675711
254	0x3d392354	0.045199707
255	0x3c203282	0.009777667

value_mlp.mlp.2.bias f4 [128]
0	0x3cb6d358	0.022317573
1	0xbd0278d8	-0.031853527
2	0xbd35ec12	-0.044414587
3	0x3e672623	0.22573142
4	0xbd4ca955	-0.049966175
5	0xbd10b09c	-0.035324678
6	0x3d56391f	0.05230057
7	0xbd35f901	-0.04442692
8	0x3d661cc9	0.056179795
9	0xbcff21d2	-0.031144056
10	0x3d6a5b83	0.05721618
11	0xbd03bbb6	-0.032161437
12	0xbcae30d7	-0.021263523
13	0xbd4aedcc	-0.049543187
14	0x3d6d0366	0.05786457
15	0xbd1b2e8d	-0.03788619
16	0xbd90f768	-0.07078439
17	0x3d83468f	0.06409942
18	0xbd309c54	-0.043117836
19	0x3caeb43c	0.021326177
20	0xbe6d96a3	-0.23201995
21	0xbd170768	-0.036872298
22	0xbd50cb8e	-0.050975375
23	0xbd2e93b5	-0.042621333
24	0x3d63309f	0.05546629
25	0x3d974c96	0.073876545
26	0x3d429500	0.04750538
27	0x3d5388b7	0.051644053
28	0xbc305f44	-0.010764901
29	0x3d26655e	0.040624015
30	0x3bedaf35	0.0072535523
31	0xbd041fa7	-0.03225675
32	0xbd2049a2	-0.03913272
33	0xbd652cd7	-0.055950966
34	0x3bb70254	0.0055849943
35	0xbca8b5fc	-0.02059459
36	0x3db0c5a6	0.086314484
37	0xbc46b5b9	-0.012128287
38	0x3c28a023	0.010292086
39	0x3c75bc2e	0.014998479
40	0xbd0a9e94	-0.033842638
41	0xbcd96464	-0.026537128
42	0x3dacdf03	0.084409736
43	0x3d18230c	0.0371428
44	0xbd43e48c	-0.04782538
45	0xbd5f752a	-0.054555096
46	0x3c68eac7	0.0142161315
47	0x3d75323b	0.059862357
48	0xbcf60a5c	-0.030034237
49	0x3d12d3be	0.035846464
50	0xbcccd5a9	-0.025004225
51	0x3d53b32d	0.051684547
52	0xbf038a15	-0.5138257
53	0x3c87d696	0.016581815
54	0xbd837319	-0.064184375
55	0x3c85ebbf	0.016347764
56	0x3d03d3f4	0.032184556
57	0x3d0be951	0.034158055
58	0x3d2e0489	0.042484794
59	0x3d0f705e	0.03501927
60	0xbc24f021	-0.010067017
61	0xbf01a41e	-0.5064105
62	0x3d71e996	0.059060656
63	0xbd3f22cc	-0.046664044
64	0xbcc632b5	-0.0241941
65	0xbcf8e0f8	-0.030380711
66	0x3d647850	0.0557788
67	0x3d0b7530	0.034047306
68	0x3cbb06bd	0.022830362
69	0x3d1156cd	0.03548317
70	0x3d01f99a	0.03173218
71	0xbdeac392	-0.11463083
72	0xbe27164f	-0.16317104
73	0xbc8d14c5	-0.017221818
74	0x3c8f3260	0.017480075
75	0xbb845fed	-0.0040397556
76	0xbd3404eb	-0.043950003
77	0x3d0169fd	0.03159522
78	0xbc975bc0	-0.018476367
79	0xbd01c66a	-0.031683363
80	0xbea20837	-0.31646892
81	0x3db9ca49	0.09071786
82	0xbde6f714	-0.11277595
83	0xbcb27773	-0.021785473
84	0x3d9061bb	0.070498906
85	0x3d124b14	0.03571613
86	0x3d152efa	0.036421753
87	0x3cae7c91	0.021299632
88	0x3d5f56d9	0.054526184
89	0xbd142870	-0.036171377
90	0x3c913559	0.017725633
91	0xbda1c666	-0.078991696
92	0x3d3b3d24	0.045712605
93	0x3d89a1e2	0.0672033
94	0x3cbe863e	0.023257371
95	0x3b34273a	0.0027489201
96	0x3dba9a95	0.091115154
97	0xbd3aaacc	-0.04557304
98	0xbda6a81c	-0.08137533
99	0xbd4eed08	-0.05051902
100	0xbd504b1e	-0.050852887
101	0xbcd62801	-0.026142122
102	0xbe8ac1a7	-0.2710087
103	0x3d13b7ee	0.03606408
104	0xbcdc66e1	-0.026904525
105	0x3d0f2b81	0.034953598
106	0xbc8be01a	-0.017074633
107	0xbb17434b	-0.0023080881
108	0x3d9ddd3b	0.07708212
109	0xbce3f56e	-0.027826991
110	0x3d5a5b8c	0.053309962
111	0x3dbeb61b	0.093120776
112	0xbc4513d7	-0.012028656
113	0xbd282867	-0.041054156
114	0xbc0b90e1	-0.008518429
115	0x3d25850d	0.04041009
116	0x3a5dcdc0	0.000846114
117	0xbd9df0f9	-0.077119775
118	0x3daf1c43	0.08550312
119	0x3cc8a211	0.024491342
120	0xbd616d45	-0.05503585
121	0xbd1aefed	-0.037826467
122	0xbcca5058	-0.024696514
123	0x3ccc9e5f	0.024977861
124	0xbd0241f1	-0.031801168
125	0x3cafd740	0.021464944
126	0x3c6dbef3	0.014510858
127	0x3d15b550	0.036549866
